actor_checkpoint.pth (torch_old, 92662 bytes, 18 tensors)

fc1.weight f4 [128, 33]
00000000: ee12 873d 49d5 05ba 532e 80be 21c1 a03c
00000010: e192 743c d5f9 edbd 4bf8 e63d b1cd b83c
00000020: 251f dc3d f987 813d eb0f 113e fd35 e8bd
00000030: 5b98 063d b186 eb3d 6785 f7bd e290 b33e
00000040: 3a4a 1e3d e4c6 853b de84 583b 7e67 32be
00000050: 7fbb 113c fc21 98bd 8821 0d3d 1609 2b3e
00000060: 8544 533d 02ee c63e 138f cabd 4bda 9f3d
00000070: ef25 0fbd 4008 ef3c b6bc c9bd 4183 fbbd
00000080: cf66 adbb e7d1 873d 6d2f e33d 028a 73be
00000090: bdeb f03c 9352 673d aa68 f6bc 2a4c a73d
000000a0: 6792 1f3b 8c3e 9d3d 49c1 3e3d 15e5 ee3b
000000b0: e156 96bd 3242 92bd 7524 a8be f763 51be
000000c0: 06a8 533e 2c4b 07bc 59a5 f6bd 194f c2bd
000000d0: 7da5 5b3d cf42 4b3b 2302 58bd 9e43 4bbd
000000e0: 673d 5dbd d730 3bbd 9a34 2b3e caf0 743e
000000f0: a2b7 cbbc 8dc8 b63c 67e6 6dbe 9912 3fbd
00000100: abcb 6fbe 03a6 e6bd 27f4 49be cf74 88bd
00000110: ecfa 6dbe d24e 0dbb 1415 f0bd 9af3 93bc
00000120: ffef 043d 1e05 3e3c 3f02 c83c f78d a1bc
00000130: 10db 9dbd 0c2c 1ebc f045 02bd 5f12 8a3e
00000140: ae4c fa3d ef67 b73e c5fb 283d 7fe5 1fbc
00000150: f46b 61bb ba3b 5eb9 f503 61bd 4e9c ae3d
00000160: 1809 85bd b275 c63c c952 8c3d 5ca8 8e3e
00000170: 9483 2abe 0e8c 01be 54bf eebd f845 52bd
00000180: ccfa 0d3e 8529 3dbe 1ded a9bd a01c 3cbd
00000190: 1a74 813d 0455 9abd 46eb f8bc 1735 2a3b
000001a0: 2e53 d63d 433d 03bc dc8c 723d a9ee 7d3e
000001b0: 366c afbc 39c8 5a3d d1f3 55bc 48dc 4d3c
000001c0: a11f 62be bba0 bd3c 54b9 173e 9248 b9bd
000001d0: 0024 8bbd 82a0 a239 8f7b 2e3e 3591 a7bd
000001e0: 2fc6 463e a905 bcbd a5e9 53be 7959 9f3a
000001f0: 06b5 3a3c 3f81 fa3d 2f84 1fbe 302c 4fbc
00000200: b51e c23d 4490 85bd 584c 523d e112 bb3e
00000210: 3eeb e63d 2369 f03d 4b71 cdbc 2804 3f3d
00000220: beeb 2d3d 3f1f 99bd be63 b5bc 13c5 253c
00000230: aecd 1b3e b19d aa3d 300a 233d b6d2 803d
00000240: 14ba f03d 9ce0 0fbc e3b1 cb3c 3f36 743e
00000250: ff14 343d 0032 0c3d 41ed cf3d b4b1 9cbd
00000260: b88c eb3d db1a 95bd dfc4 533d d789 fabd
00000270: 28bc b53d ed77 603e 34bf 2bbd b8de 7dbd
00000280: 871b da3d 593c 443e d189 e6bd fa42 133e
00000290: 75f2 e1be d2c6 bb3d 7efd 6a3d 874c f8bd
000002a0: 9f7c c2bd 6565 ad3c 29d3 31bc d02b 423e
000002b0: b88d 173d ddd8 d93d 7219 e73d b415 973d
000002c0: 8534 6d3e cedd e3bd 6678 90bd ebf2 cbbd
000002d0: aeb7 c33c 1313 58bd a1b5 7f3d 4dc6 323d
000002e0: 7517 01be 2c1a a63c d0c0 b4bd 7d08 a3bd
000002f0: cc22 2f3e f90a 8bbe 1710 903d 4749 493e
00000300: cc99 30be c51a 86bd b3e8 5a3d 732e 13be
00000310: caeb c73d 2d5d 75bd c435 e93d 9863 73bd
00000320: d578 2f3e 1cd1 edbd b8a1 973d 44a2 913d
00000330: 9e58 e0bd 1cc1 0ebc 286a d0bd da63 65bd
00000340: 571f c43c 0270 14be e9b3 ddbd 116c 34be
00000350: 27a0 14be d141 99be d994 93bc 0bb7 5bbd
00000360: 984b 233e 4157 f9bb 7dbf 7a3d 5f0b 1c3d
00000370: 3312 6fbd 1eb8 7f3d 4390 02be b52a 923c
00000380: bc90 60be 113f db3d 5858 c6bc 9384 4bbe
00000390: 268b 023e 6291 97be b4b0 643e c761 b63e
000003a0: 7bad 123e e850 8fbe 2c52 81bd 6982 2cbd
000003b0: 21f6 3d3d e23d eebd 9985 48be 848d 163e
000003c0: c916 743c a69f af3c 31dc 09bc effb e2bc
000003d0: ebf7 033c d7c5 ad3a ee39 54be d515 0ebe
000003e0: 5a2d f6bc b2b4 2dbd 7412 62be cb65 2d3e
000003f0: 41a9 e4bd 85f3 fc3c 9a3a 0dbc f073 99bb
0.065954074 -0.00051053293 -0.25035343 0.019623341 0.014927597 -0.11619917 0.11277827 0.022559019
0.10748128 0.06324763 0.14166228 -0.113384224 0.03286014 0.115003 -0.12085991 0.35071474
0.038645007 0.0040825475 0.003303818 -0.17422292 0.0088948 -0.07428357 0.034455806 0.16702685
0.051579017 0.3885346 -0.098905705 0.07805308 -0.034948286 0.029178739 -0.09850447 -0.12280894
-0.0052917968 0.066318326 0.1109303 -0.23783115 0.029409284 0.056475233 -0.030079205 0.08168824
0.0024348737 0.076779455 0.04657105 0.0072904923 -0.073407896 -0.07141532 -0.32840315 -0.2044829
0.20669565 -0.008257668 -0.12043256 -0.09487743 0.05362462 0.0031015163 -0.052736413 -0.04962503
-0.054013636 -0.045700874 0.16719285 0.23919979 -0.024867836 0.022312427 -0.23232423 -0.046648595
-0.23417537 -0.11262133 -0.19722043 -0.066629045 -0.2324025 -0.0021561873 -0.1172277 -0.018060494
0.03245544 0.0115979 0.024415134 -0.019721014 -0.077077985 -0.009654056 -0.03180498 0.2696714
0.12221657 0.35821483 0.04125573 -0.009759306 -0.003439662 -0.0002119382 -0.054935414 0.085259065
-0.06495875 0.024226043 0.068517275 0.27862823 -0.16651756 -0.12651083 -0.11657587 -0.05133626
0.13865203 -0.1847287 -0.08297179 -0.045925736 0.06320973 -0.07535747 -0.030385625 0.0025971585
0.10465084 -0.008010211 0.059216365 0.24798073 -0.021413904 0.053413603 -0.013058619 0.012564726
-0.22082378 0.023147931 0.14816791 -0.09047045 -0.06793976 0.00031018635 0.17039321 -0.08181993
0.19411539 -0.09180767 -0.20694597 0.0012157402 0.011395698 0.12231683 -0.15577768 -0.012644812
0.09478513 -0.06521657 0.05134234 0.3653784 0.11275338 0.11738803 -0.025078436 0.046634823
0.04246115 -0.07476663 -0.022142287 0.010117787 0.1521518 0.083308585 0.039804637 0.0629019
0.117542416 -0.008781578 0.024865096 0.23848818 0.043965336 0.03422737 0.101526745 -0.07651082
0.11501449 -0.07280513 0.051701423 -0.12233322 0.088737786 0.21920748 -0.041930392 -0.06197998
0.10649782 0.19163646 -0.11256755 0.14381018 -0.44130293 0.09168781 0.057370655 -0.121239714
-0.09496426 0.021166513 -0.010853567 0.18962026 0.037000388 0.106370665 0.1128415 0.073771864
0.23164566 -0.1112629 -0.07054214 -0.09958442 0.023891296 -0.052752566 0.062429074 0.043646146
-0.12606604 0.020276152 -0.088258386 -0.079606034 0.17103118 -0.2715681 0.07034319 0.1965686
-0.17246169 -0.06548075 0.053444576 -0.14373188 0.0976177 -0.059903312 0.11387208 -0.059421152
0.17135938 -0.1161215 0.07403892 0.07111028 -0.109544024 -0.008713033 -0.10176498 -0.05600343
0.023940725 -0.14495853 -0.10825331 -0.17619349 -0.14514218 -0.29933026 -0.018015312 -0.05364136
0.15946805 -0.0076092784 0.061217774 0.03809678 -0.058366966 0.062431447 -0.12750344 0.01784263
-0.21930212 0.10705388 -0.024212047 -0.19874792 0.12748393 -0.29603106 0.22333032 0.35621473
0.1432399 -0.27991414 -0.06314501 -0.042116556 0.046377305 -0.11632897 -0.19582213 0.14702421
0.0148980105 0.021438431 -0.008414314 -0.027708022 0.008054714 0.0013257813 -0.20725223 -0.13875516
-0.030050922 -0.042408653 -0.22077352 0.16933362 -0.11165095 0.030877838 -0.008619929 -0.0046830103

fc1.bias f4 [128]
00000000: 4a49 3a3e 782d 523e a19b be3d b144 75bd
00000010: 7f74 15be 6c6f ba3c af26 973e bd8f f53c
00000020: 60bf 2f3d 6499 67bc f9d2 893d 51b0 353e
00000030: a733 453d e8b0 b83d ef08 283e bcda ad3d
00000040: 1b1c 163e 8ad1 193d 0d03 d7ba 18c9 7a3d
00000050: 91c9 5e3c 6bf0 41bd 4151 4d3e b1a4 973e
00000060: 51a9 143d 9535 463e a0a3 b93d e579 903e
00000070: 2bbd 123f e5f8 6ebd 1a11 903e 76fd 983d
00000080: b687 713e aa9b 953d fcfc b33d c999 2d3e
00000090: 5279 25be a18b 94bd 5e87 073e dd10 1d3e
000000a0: bac4 9e3c b08d 7dbd 6e4a 293e bf99 b93e
000000b0: be52 de3d 89be 403e cc6a 223e d690 c73d
000000c0: a787 823e f64f cf3d 2dae abbd ee1b 473e
000000d0: 397b 4b3e 322b 1bbc 55f4 4cbc a32a 053e
000000e0: ca50 503e e3c8 913e 1495 f63d 0138 863e
000000f0: 3877 793e 437f 3d3e 8fec 173d c828 843d
00000100: 3e2a 593e 0e03 0fbe 3aa5 773d 07e6 553e
00000110: e544 d53d 7f65 b93e 92eb 9f3c d821 283d
00000120: bf85 bd3d 7542 843d 80c5 353e 2c3e 2ebb
00000130: bce4 d2bc 83d7 113e 001c 043e 586b 22bc
00000140: 3167 983c 970e 1d3e 6df3 2abb 408c de3d
00000150: d504 953e 7fb9 ff3d a01b 5e3d c8a1 703e
00000160: 4b7e d83e 1dd1 8c3d d0f0 e63d a6a2 4a3e
00000170: 2f23 923d 049b df3d 4842 333d 6c15 e73d
00000180: e6e3 cf3d d150 883d 718e f23d bd25 f13d
00000190: e406 84bd da77 7e3e a200 003e af2d 843e
000001a0: 742b 8c3d 5c70 aa3b 9a49 b03e b3ac aa3d
000001b0: be9a 713e 0fe3 ffbb ceb7 993d 2816 c23d
000001c0: 8911 533e 1b52 ae3d a97d a43e dd51 5a3e
000001d0: 090d c63e a76f ba3c ac67 3bbc 9fd6 3b3d
000001e0: fe4f 393e c004 3d3e dacb d23d d9d4 303e
000001f0: f3d0 dfbc 7a7f b13c cf7d 98bc 6d60 273d
0.1819202 0.20525157 0.093070276 -0.059879962 -0.14595221 0.022758208 0.295217 0.029975766
0.04290712 -0.014135692 0.06729693 0.1774304 0.048144963 0.09018117 0.16409658 0.08488986
0.14659159 0.037553348 -0.0016404107 0.061226934 0.013597862 -0.04734842 0.20050527 0.29617837
0.036294285 0.19356377 0.09064412 0.28217998 0.573199 -0.058342833 0.28138047 0.07470219
0.23586926 0.07305081 0.08788487 0.16953196 -0.16159561 -0.072531946 0.13235232 0.15338464
0.019380916 -0.0619027 0.16532299 0.3625011 0.108556256 0.18822683 0.15861052 0.09744422
0.2549412 0.10122673 -0.08382831 0.19444248 0.19871224 -0.009470748 -0.012509425 0.13004546
0.20343319 0.28473577 0.12040153 0.26214603 0.24361885 0.18505578 0.037090834 0.06453091
0.2120752 -0.13966009 0.060460307 0.2088853 0.10413531 0.36210248 0.019521508 0.0410479
0.09254026 0.06457988 0.17751122 -0.002658735 -0.025743835 0.14242367 0.12901306 -0.009913288
0.018603893 0.15337597 -0.0026085034 0.10866594 0.2910525 0.124865524 0.054225564 0.23499215
0.42283854 0.06875823 0.112764 0.19788608 0.07135617 0.10918239 0.043764383 0.11283383
0.1015089 0.066560395 0.11843575 0.11774776 -0.06446627 0.24850407 0.12500241 0.25816104
0.068442255 0.0052013826 0.34431154 0.08333721 0.23594186 -0.00780905 0.07505761 0.09476882
0.20612158 0.08511754 0.3212712 0.21320291 0.3868182 0.022758318 -0.0114382915 0.045858975
0.18096921 0.18458843 0.10292788 0.17268695 -0.027321314 0.02166723 -0.018614678 0.040863443

fc2.weight f4 [128, 128]
00000000: 51d1 8c3e 58c2 cdbc ee80 37bc 1e8f 87be
00000010: 4393 88bd fee4 7abd 63c8 413e f9f9 a7bd
00000020: e895 dd3d cb4b 253d c844 f13d 6ca3 94bd
00000030: 8396 cd3d 098c 2ebe 674c 8bbd 118f bb3d
00000040: 479f 7f3d 4066 e1bd be95 4c3e 7222 8ebb
00000050: 8337 eb3d ba54 fbbd a016 ecbb 0e0a e43d
00000060: a712 04be 38c3 8fbd 14e4 fd3c 1cb3 71bc
00000070: 22ad da3d 211b 823d c4b4 a53d 13b9 233e
00000080: a125 76bb bb1d d13d c14e 9bbc 664f 77bd
00000090: aaab 083e cd52 00bd 7c02 28be 4d7a c6bd
000000a0: 5fe2 183e adf8 e7bd e183 7f3d 0668 293e
000000b0: 8c42 a23d 23a1 323d 1622 04be 7ca8 dbbd
000000c0: 5f08 0f3d 1141 eb3d b97e 22bc 41c0 f5bd
000000d0: d165 573d c3e0 87bd c9f2 873d 2193 153d
000000e0: 7e2f 8f3d 65b0 16bc 3870 b53c c0ef 8dbc
000000f0: 3319 393b 50ff 623c 08f8 de3d c474 6c3d
00000100: cada 3e3e 2a51 20bd cf08 b8bc e4ec e43d
00000110: 4fcc 01be 4b60 86bc 0deb 033e 7105 283d
00000120: d74d 2ebc 88a7 e9bd 16f3 02bc e03f 7abd
00000130: 84d1 813d da08 f7bd 31d6 923d b7d1 28bd
00000140: 7abb 5ebd 7b67 0b3e af4a b2bc a1bf 3b3e
00000150: a25b 3a3d 5c07 debd 0e65 eebd ed56 3b3d
00000160: c3fb f1bc fd8e 9cbd 6f9c 593c 1e13 16be
00000170: 7a8e e9bb 95c8 753d 2b47 85be bbbe 0ebe
00000180: a1e6 90bb a4c0 32be 64f3 89bd c988 f8bd
00000190: 16b4 46be 6d1f 2abe f5a8 e73c ed08 b8bd
000001a0: acbc 32bd 5070 fdbd e4d5 7a3c e4bd 5f3d
000001b0: 96ff 97bd eac9 4cbe 58cc fe3d 6ef9 2dbe
000001c0: d44d 80bd d5c3 8ebe 1c6b cabd f2ce babd
000001d0: 454e debd e3f4 67bd f4a0 9b3d a560 f23d
000001e0: 03d4 19be ea4c 9abc 5562 523d 48a9 dd3c
000001f0: 0ca2 593e 5153 03be ce5c 293e 1530 083e
00000200: c8de 6dbd 20dd 433e abb0 9fbd 7b11 41be
00000210: 57ed dcbc 30bc fe3d a386 be3d a8f4 283d
00000220: 322a 463d 1eeb 283e cdbd 4b3e dbc1 dcba
00000230: 7ba2 fe3d b918 84be d345 723c d056 e2bd
00000240: df77 02bd bc65 f73d eb64 b6bd cca3 42be
00000250: e389 19bd 66de b4be bd63 2a3d 6e0a 4cbe
00000260: 114a f2bd 34e0 073b 1438 103c 6f90 c8bd
00000270: d19c 613d 2e84 8dba 46c3 f43c aed0 9cbd
00000280: 2666 7ebd 4452 a3be df57 8dbd 423c 7ebb
00000290: 26ba 6bbe 4e74 56bd 3001 d13c ab45 51bc
000002a0: dafb 88bd 28b4 1e3b abe0 c73d c4ee 833d
000002b0: dd9d d83d c1ab 4e3e b4a3 1e3e 4565 6b3e
000002c0: 7f37 a03d 0590 163d e1b9 e03d b10c b1bd
000002d0: fab4 0cbc c6fa ef3d 7f0d d83d 7ae4 03bd
000002e0: 23f1 7cbd e7f5 a3bd 3904 adbd 176d 883b
000002f0: 180d cb3d 809a 903e 064a b0bd 670e 26bd
00000300: 8a27 4db9 59c1 06bd 5512 e0bc acc2 7fbd
00000310: 9ccd 44be 90a5 ccbd c047 ac3d fe99 fe3d
00000320: 87d8 613e 5083 1c3d c571 a93a f2e7 babd
00000330: 0052 a43d c503 7abe 3338 7dbd 3d00 27be
00000340: 8d42 843d 37a7 c83d 3a10 c23c 00db 7ebd
00000350: 6b2e e43a 4a38 40be 55d0 97bd 285b 16bc
00000360: aa47 48be 37c8 d83c d08d 76bc af49 7ebd
00000370: acf8 0d3e 92bf 4bbd 922f eb3d 17b2 83bb
00000380: c668 883e ca2e 3d3c b8e3 333d f800 b93d
00000390: f364 78be 4b39 a5bd ceb0 53be f88b 77bd
000003a0: ccef aa3d e808 ad3d 968f 373c 16fc 013d
000003b0: fc95 a73d 027f f8bc 5743 ee3d e5d7 4abc
000003c0: 3468 353e f274 18bd fe16 643d 0245 0abe
000003d0: 7b22 d03d 088f 4dbe 9355 3c3e 110d 0fbe
000003e0: f2bf f6bc 9783 fb3d f388 31bd f710 1c3c
000003f0: bd10 35be 7a1a 1dbe 1b13 81bc 5361 39be
0.27503446 -0.025117084 -0.011200173 -0.26476377 -0.06668713 -0.06125354 0.18924098 -0.082019754
0.10819608 0.040355485 0.11780697 -0.07257733 0.100384735 -0.17045607 -0.06801682 0.09158147
0.062407758 -0.11005831 0.19978997 -0.0043376023 0.114851974 -0.1227202 -0.0072048455 0.1113473
-0.1289774 -0.07019657 0.030992545 -0.014752176 0.10677554 0.06352831 0.08091119 0.15988569
-0.003755905 0.10210749 -0.018958451 -0.060378455 0.13346735 -0.031328965 -0.16407198 -0.09691296
0.14930104 -0.11326728 0.06238163 0.16543588 0.07922849 0.043610703 -0.12903628 -0.10725495
0.034920093 0.1148702 -0.009917908 -0.1199956 0.052587334 -0.06634667 0.066381045 0.036517266
0.0699148 -0.009197329 0.022148237 -0.017326236 0.002824378 0.013854817 0.10887152 0.057728544
0.18638149 -0.039139904 -0.022465138 0.11177996 -0.12675594 -0.016403338 0.12882634 0.041020814
-0.010638676 -0.11408907 -0.0079925265 -0.061096072 0.0633879 -0.12062235 0.0716976 -0.041215625
-0.05437801 0.13613693 -0.021764128 0.1833482 0.045497544 -0.108412474 -0.116403684 0.045737196
-0.029538995 -0.0764446 0.013281926 -0.1465573 -0.0071275802 0.060005743 -0.2603086 -0.13939945
-0.0044220244 -0.17456299 -0.06735876 -0.12135465 -0.19404635 -0.1661355 0.028278807 -0.089860775
-0.043636963 -0.123749375 0.015309785 0.054624453 -0.07421796 -0.19998899 0.12441319 -0.16989681
-0.062648445 -0.27883783 -0.09883711 -0.09121503 -0.108547725 -0.056630027 0.07599059 0.1183484
-0.15022282 -0.018835504 0.051363308 0.027058259 0.21253222 -0.12824751 0.16539308 0.13299592
-0.05807379 0.19127321 -0.077973686 -0.18854325 -0.026968641 0.12438238 0.09303024 0.041248947
0.048380084 0.1649594 0.19896622 -0.0016842441 0.124333344 -0.25800112 0.014787155 -0.110517144
-0.0318526 0.12079951 -0.08905967 -0.19007796 -0.037485015 -0.35325927 0.041599024 -0.19925854
-0.11830533 0.0020733 0.008802433 -0.097931735 0.055081192 -0.0010796839 0.02987827 -0.0765699
-0.062109135 -0.318987 -0.06901526 -0.003879324 -0.23020229 -0.05235701 0.025513262 -0.012772958
-0.06688662 0.0024216268 0.09759649 0.06442025 0.10576985 0.20182706 0.15492135 0.2298785
0.07823085 0.03675844 0.109729536 -0.08644999 -0.00858807 0.11717753 0.10549449 -0.032200314
-0.061753403 -0.080058865 -0.08448071 0.004163395 0.09914607 0.28242874 -0.08607869 -0.04054108
-0.00019565053 -0.032899234 -0.027352491 -0.062441513 -0.19219059 -0.09992516 0.08412123 0.124317154
0.22055255 0.038211167 0.0012927583 -0.09126271 0.08023453 -0.244155 -0.061821174 -0.16308685
0.06458006 0.09797519 0.023689378 -0.062220573 0.0017408853 -0.18771473 -0.07412783 -0.009177007
-0.19558588 0.026462657 -0.015048459 -0.06208199 0.13864392 -0.049743243 0.11483683 -0.0040190327
0.26642436 0.0115468 0.04391834 0.09033388 -0.24257259 -0.080675684 -0.20672914 -0.06043622
0.08346519 0.08448964 0.011203667 0.03173455 0.08182904 -0.030334 0.11633938 -0.012380575
0.17715532 -0.037220903 0.05568599 -0.13502887 0.10162827 -0.20074093 0.18392019 -0.13969828
-0.030120824 0.12280958 -0.043343496 0.009525529 -0.17682166 -0.15342131 -0.01575618 -0.18103532

fc2.bias f4 [128]
00000000: 5939 e6bd e144 2f3d fe32 57be ee15 853d
00000010: 7a15 7c3d 33e4 adbd cdc1 6dbd 43e9 1dbe
00000020: 968c aebd 5d85 2d3d 0a1a 14be 46ef 89bd
00000030: 0a2f aa3c b0d7 34bd 509a 22bd 281f 01be
00000040: 1d67 ffbd 6c73 153d 1eb5 87bd 89af 1fbd
00000050: 5842 9e3d b920 b9bd d011 48bd 0900 f23c
00000060: e006 b7bd 1611 7dbd 0f6d 63bd 4bd8 debb
00000070: ac95 8abd 58bb be3d 8653 b4bd 2970 563e
00000080: 88f0 863d bab5 c8bd b245 1f3e 7ef7 5b3d
00000090: b9c2 0fbb 5a02 643d e2b7 2f3c 31b4 183d
000000a0: 6c24 f13b 5717 bdbd 4ec6 abbd 8ce3 19bd
000000b0: 81bc e63c f5dd 94bd b81c 9fbd a7b4 8abe
000000c0: 8db5 34be 3e6c f43d 7d2f 853e 2e20 debc
000000d0: 1a8f 9fbd e8c7 6b3b fb91 a03d d698 d8bd
000000e0: 32df c1bc 810f 463d 40b6 e83d 9cbe 6b3e
000000f0: 322a 88bd ba88 16be 09eb 043e 7672 02bd
00000100: 622c 5c3d be35 773d 511a c9bd d593 ef3c
00000110: 085e 19be 6d79 93bd 6d1f 85be 80ce 9e3d
00000120: 6323 63bd 1340 ac3d 342c 31bd 6709 4e3e
00000130: ea4c 99bb 81e7 dfbc 2150 843d 6323 b5bb
00000140: 5148 b2bd 740d 54bd 8fc8 91bd 13f5 5b3e
00000150: 65ae ae3d 4450 143e 1166 233b d687 70bd
00000160: bcdc 06bd a79a 4d3d 3ec7 07bb c41c a8bd
00000170: 36e9 4bbe dd4e 8e3d a6bd 8bbc eb88 5dbe
00000180: c483 68bd ec26 6e3c 9775 87bd dd3a ec3c
00000190: 8189 a6bd bdfc 4fbe fa29 5abc d2e3 433d
000001a0: 63c0 943d db01 19be 5a10 a43d a084 cbbc
000001b0: dc11 2ebd 1005 2ebc de76 ecbd 91d6 e53c
000001c0: 07c4 ca3e dd1a a4bd dcd6 b9bd a655 0bbe
000001d0: 854a 1bbe 62d6 1ebd a2e1 ccbd 8bae 68bd
000001e0: 0a43 b73d 6b92 ffbc ef28 693d bc18 293d
000001f0: cb21 7b3e 8f90 63bd 2c0f 7d3b d648 143e
-0.11241407 0.042790297 -0.21015546 0.064983234 0.06154392 -0.08490791 -0.05804615 -0.15421014
-0.085229084 0.042363513 -0.14463058 -0.06735091 0.020774383 -0.044151008 -0.039697945 -0.12609541
-0.12470839 0.036487028 -0.06626342 -0.038985763 0.07727498 -0.090394445 -0.048845112 0.029541032
-0.08936858 -0.061783873 -0.05552393 -0.0068006865 -0.06766829 0.09313077 -0.08804993 0.20941223
0.065888464 -0.098002866 0.1555393 0.053702824 -0.0021936132 0.055666305 0.010724993 0.03728122
0.007359078 -0.09232967 -0.08387433 -0.03757052 0.028166058 -0.072688974 -0.077691495 -0.27090952
-0.17647381 0.11934708 0.26012793 -0.027114954 -0.07790966 0.0035977308 0.078403436 -0.10576026
-0.023665998 0.04835463 0.113628864 0.2302193 -0.06648673 -0.14700595 0.12980284 -0.03184744
0.053753264 0.060353987 -0.098194726 0.029245296 -0.14977276 -0.072008945 -0.26000538 0.077542305
-0.05545367 0.08410659 -0.043255046 0.20120774 -0.0046783583 -0.02733207 0.06460596 -0.0055279
-0.087051995 -0.051770642 -0.07118332 0.21480207 0.08529357 0.14483744 0.0024932662 -0.058723293
-0.032925352 0.050196316 -0.0020718123 -0.082086116 -0.19913182 0.06948636 -0.017058205 -0.21634261
-0.056766286 0.014535647 -0.06614225 0.028836662 -0.081316955 -0.20311256 -0.013315672 0.04782469
0.07263257 -0.14942114 0.08010931 -0.024843514 -0.0424975 -0.010621324 -0.115461096 0.028056415
0.39602682 -0.08012936 -0.09074184 -0.13606891 -0.15165146 -0.03877867 -0.100039735 -0.056807082
0.089483336 -0.031197747 0.056923803 0.041283354 0.2452461 -0.055557784 0.003861378 0.1448091

fc3.weight f4 [4, 128]
00000000: 058c 473e cd34 3bbe 6781 153d 34d5 cd3e
00000010: 1429 883e f267 3cbf cbf1 aa3e d5a2 903e
00000020: be55 2f3e da6b e93e 3244 1e3f 8e05 f1bc
00000030: 42cc f33d 478c 9ebe 6fbe 97be 2baf a4bd
00000040: 3599 213f 5343 e23e 4dc9 573d 52f6 1a3f
00000050: 7474 c03e 0cde 5bbf e5ec b1be b66e 8abe
00000060: db1a 68bc 544a 8dbe 9170 9c3d f752 e0be
00000070: 564d ebbd c2ab 443e a0a0 ddbe 18b8 20bc
00000080: 978d 0ebf f0e3 a73e 16b7 803e 2d4a 1fbf
00000090: def5 10bf c157 86bc 9247 8ebd dc92 db3e
000000a0: 3a99 993e 7bdd 10bd 735b 37bf 2157 c73c
000000b0: 28d9 0ebe c4a0 bf3d 5e79 a13e 2da1 8d3d
000000c0: 56ca d6be 955d 0c3f c2ea 3bbf 430d ebbe
000000d0: 2dea 27bf 5266 9fbe 70d9 453e 36da a13d
000000e0: c102 8c3e b967 313e bb0a f0be ccb3 02bd
000000f0: a7ab 643e 7bc0 e23d ffc9 833c 7c31 adbe
00000100: 59ce 10be e682 e33d ff25 4f3f e565 1dbe
00000110: 7005 b4be 79aa 583e 10e7 dd3e 54e5 173f
00000120: fb78 563e 51b6 06bf 7f06 18bf 23c5 87be
00000130: aa8f 753d ee82 df3e 12a6 88bd 127e 1f3f
00000140: 7c37 f3be 0b32 1a3e 641c 13bf 30a7 8bbe
00000150: 78e7 2d3f b80f 903e 0db0 9f3e b360 833e
00000160: 222e 923e f068 58bf 65f1 743e e200 59be
00000170: fc84 913e 2a5c 033f 1868 bfbe ff0e 303c
00000180: 25a7 bf3e eed1 333e 56a2 48bf 7798 6f3b
00000190: b932 a93e 1b6b a4be 159a 1bbe c54f c0be
000001a0: 46ef 433e a42c 273d 4752 eabe 9175 493e
000001b0: 6dbf b8be f5fa e7be 4d39 4e3e c62b 6abe
000001c0: 387e a0be ab33 473e 52e9 39be 2b94 233e
000001d0: a368 fa3e 88d1 a2be 100c bcbe ef99 cebd
000001e0: 3f85 a0be 6cdf fd3e e55b c73e 6135 afbe
000001f0: 69ae 87be 6acb de3e 9e90 1bbe 8caa 0dbe
00000200: 52e6 03bf 9553 0ebf 4cd9 4e3e c842 f6be
00000210: 8d31 89be 1f58 313e a96f 483e bb30 54be
00000220: 56e8 f1bd ae39 05bf cbcc 35be fce6 143e
00000230: 70da cc3d 53d0 ea3e 78fd 963e 116f 173f
00000240: 2ed0 df3e 5a8d d0bd be00 a4be 3481 be3e
00000250: 83c1 b7be 9aa4 1ebe 6cdd 6ebe 9c48 483f
00000260: d9b9 843c 4d73 c1bb 49a6 e33d d902 e1bd
00000270: 125e 843e c324 b7be 25fa b23e 8f26 da3e
00000280: c735 0ebf cff9 b73c cd9d fdbd 8f46 12bf
00000290: 0877 51be 1bc3 23bf cffa 4dbe 2318 153f
000002a0: 5c6d 6b3e 51b8 c03d 0a77 683e 0b8a fdbd
000002b0: e471 1dbd b6a9 acbd 2a68 d13e 5a0c 553d
000002c0: 186e 5fbe decb 8b3e 332e 833e 1adc 83be
000002d0: 494d d5be c049 77bf c8a1 68be 91f1 dfbe
000002e0: 2eeb 94bd 5907 b73e 76fb fa3e 5280 833e
000002f0: cb2f 4c3f 6421 86be c755 643f 20b5 81be
00000300: 9f5d 99be 3716 3b3e 8de3 89be 5176 7c3e
00000310: abeb a13b c55a 753e 09f4 0ebb e2d3 af3e
00000320: a5c3 f2bd 3058 ff3e 2b99 133e 026b babd
00000330: a486 d33d c005 50be 9042 233e f3fc 14bf
00000340: ab89 613d bb88 19bf b210 523f 3e21 bf3e
00000350: ddcb d8bd 9444 3b3d 9cb2 7e3d f8dd 8c3e
00000360: 1c26 b53d f93f f0be 4d4c 00be 898f 5e3e
00000370: ad0f 87be 5fa3 0e3f 7ea3 333f ee6c 51bf
00000380: bb97 b9be ec40 0cbe afbd 0ebd 8723 9f3c
00000390: 674a 04bf aa74 d43d 2b03 ffbe f54d de3b
000003a0: e140 acbd 23ac a2bd bcfc 2d3c 8a6d 98bd
000003b0: 0f33 833e 711b 76be 8388 fe3b 1ca1 67bf
000003c0: 5e09 fabe bddc 193f b4a2 3bbe 57ce 84bd
000003d0: b082 c43e 7117 15be 1a68 913d 52e7 c13e
000003e0: f8ea 553e 41cf cf3e 065e bcbd 35f8 ac3e
000003f0: 3da1 14bf 224d ddbe 97fe 1b3f 92d9 99be
0.19487007 -0.1828186 0.03650036 0.40201724 0.2659384 -0.7359611 0.33387598 0.2824923
0.17122552 0.45590097 0.6182281 -0.029421594 0.119041935 -0.30966398 -0.29637477 -0.08041223
0.631244 0.4419199 0.05268221 0.60532105 0.37588847 -0.8588569 -0.3475105 -0.2703759
-0.014166559 -0.2759577 0.07638658 -0.43813297 -0.1148936 0.19206145 -0.4328661 -0.009809516
-0.556848 0.3279109 0.25139683 -0.6222256 -0.56625164 -0.016399266 -0.06947245 0.42885482
0.29999715 -0.03536747 -0.71623915 0.024333538 -0.13950026 0.093568355 0.31537908 0.069155075
-0.41951245 0.54830295 -0.73405087 -0.45908555 -0.655917 -0.31132752 0.19321227 0.079029486
0.2734585 0.17324723 -0.46883187 -0.03190975 0.22331105 0.11071869 0.01608753 -0.33826816
-0.14141215 0.11108951 0.8091735 -0.15370901 -0.35160398 0.2115878 0.4334035 0.593343
0.20944588 -0.5262194 -0.5938491 -0.2651759 0.05995146 0.4365458 -0.066723004 0.62301743
-0.4750327 0.15058152 -0.57465196 -0.2727599 0.6793132 0.28136992 0.31189004 0.25659713
0.28550822 -0.8453512 0.2392021 -0.21191743 0.28421772 0.51312506 -0.37384105 0.010745763
0.3743221 0.1756055 -0.78372705 0.0036559382 0.3304651 -0.32112965 -0.15195496 -0.3756086
0.19134244 0.040814057 -0.45765898 0.19673754 -0.36083546 -0.45308653 0.20139046 -0.2286826
-0.31346297 0.19453304 -0.18155411 0.1597449 0.48907956 -0.31800485 -0.36727953 -0.10087954
-0.3135166 0.4958452 0.38937297 -0.34220412 -0.26500252 0.43514568 -0.15191886 -0.1383459
-0.51523316 -0.55596286 0.2020008 -0.48097825 -0.26795617 0.17318772 0.19573845 -0.20721714
-0.11811893 -0.5204114 -0.17753904 0.14541239 0.10002601 0.45862064 0.29490256 0.5915385
0.43713516 -0.10183211 -0.32031816 0.3720795 -0.35889825 -0.15492478 -0.23326653 0.78235793
0.0162019 -0.0059036375 0.11115701 -0.10986871 0.2585302 -0.35770234 0.3495647 0.42607543
-0.5555081 0.022457985 -0.12383614 -0.57138914 -0.20455563 -0.6396958 -0.20115207 0.58239955
0.22990936 0.094101556 0.2270166 -0.12379845 -0.038438693 -0.08430807 0.40899783 0.052013732
-0.21819341 0.27303976 0.25621185 -0.25753862 -0.41660526 -0.9659691 -0.22717965 -0.43738988
-0.072714195 0.35747793 0.49019974 0.25683838 0.79760426 -0.2619735 0.89193386 -0.253335
-0.2995424 0.18270193 -0.2693142 0.24654509 0.004941424 0.23960407 -0.0021812937 0.3434134
-0.118537225 0.4987197 0.14413898 -0.09102441 0.10328415 -0.20314693 0.1594336 -0.5819847
0.05506293 -0.5997426 0.82056725 0.3733005 -0.10585759 0.045719698 0.062182054 0.275131
0.088451594 -0.46923807 -0.12529106 0.21734442 -0.26379147 0.55718035 0.70171344 -0.8180684
-0.36248574 -0.1369664 -0.034848865 0.01942612 -0.5167603 0.103738144 -0.49807104 0.0067841955
-0.08410812 -0.07942989 0.010619339 -0.07442768 0.25624892 -0.24033906 0.0077677383 -0.9048021
-0.48835272 0.60102445 -0.18323785 -0.06484669 0.38380957 -0.14559723 0.07099934 0.37871796
0.20890415 0.4058781 -0.09197621 0.33783117 -0.5805853 -0.4322291 0.6093535 -0.30048805

fc3.bias f4 [4]
00000000: 336d ed3d e72c 573d f7ab 4a3d 5eaf ce3d
0.11593094 0.052533057 0.049480405 0.100920424

batch_norm1.weight f4 [33]
00000000: ee88 3d3f 3198 1f3f 48e8 f73e 0d8d 603e
00000010: 71ab 5f3e f882 663e 0685 c13d 42f7 023e
00000020: d7e5 f43d 4dfa b43d 0032 c23e 2334 ae3e
00000030: b34e 823e 072d 4f3f d130 1d3f 66dd 263f
00000040: 395b 173e 8901 3f3e 32c8 023e da43 043e
00000050: dcbd 583e 26f4 323e 6c2a 8b3e 3852 4b3f
00000060: b89a 313f 8654 a73e aa65 3a3f 53a3 613f
00000070: f409 923f d959 6e3f 40d8 553f 461c 383f
00000080: d865 313f
0.74037063 0.623416 0.48419404 0.21928807 0.21842743 0.22510898 0.094492 0.12789634
0.11957901 0.088368036 0.37928772 0.34024152 0.25450668 0.8092808 0.6140261 0.6518158
0.14780892 0.1865293 0.12771681 0.12916508 0.21166176 0.17475948 0.27180803 0.7942233
0.6937671 0.32681674 0.7281138 0.8813984 1.1409287 0.93105847 0.83533096 0.7191814
0.69296026

batch_norm1.bias f4 [33]
00000000: c77d c33d 57e4 a1be 8d9d 58bd ac27 11bc
00000010: 943c b43d e189 8b3d feb6 06be 86c7 f1bd
00000020: d81d 87be d0d2 b5bd aa91 963d 5502 47be
00000030: 6bf4 933d 2049 abbc d4b9 aa3d a6fd 5dbc
00000040: 1280 503d 759e bc3c fce6 ccbd 2706 0f3d
00000050: 6078 9fbe 656d 3d3d e122 9ebd c60b 8d3d
00000060: 848a cd3c a17c 113d 65f0 96bd d1bc 503e
00000070: f600 7dbb 6b1f 7fbe b213 8a3e 4a80 59be
00000080: cd0b dbbd
0.095454745 -0.31619522 -0.052884627 -0.008859556 0.08800617 0.06813408 -0.13155743 -0.11805634
-0.26389956 -0.088781 0.07352002 -0.19434483 0.072243534 -0.020908892 0.08336225 -0.013549244
0.050903387 0.023024777 -0.10004994 0.034917977 -0.31146526 0.046246905 -0.077214964 0.06887011
0.025090463 0.035519246 -0.0737007 0.20384528 -0.003860531 -0.24914329 0.2696815 -0.21240345
-0.1069561

batch_norm1.running_mean f4 [33]
00000000: 574e 3b3f d1a8 22c0 a815 a1bd 8255 273f
00000010: cb3b 813d a2ec f0bc 5376 103c ebdd bebc
00000020: 216e 24bc cc01 603c f982 6f3c 4268 bd3c
00000030: 1f2f 713d 78f3 1b3f 7e9e 35c0 025c 7ebe
00000040: d1e7 223c e3e6 fd3c c019 c33b 63d5 a3bc
00000050: 942d 5fbd 291c cabd 093b 923e 0b5c b73d
00000060: 7363 a53d 40f4 e53d 20f6 94be fcff 7fbf
00000070: 55a5 b9bd 0000 0000 fcff 7f3f 0000 0000
00000080: efba 77bd
0.7316641 -2.5415537 -0.07865459 0.6536485 0.06310233 -0.02940971 0.008817273 -0.023299178
-0.010036022 0.013672303 0.014618629 0.023121003 0.05888283 0.6091838 -2.8377986 -0.24839786
0.009942965 0.030993884 0.0059539974 -0.019999212 -0.054486826 -0.098686524 0.28560665 0.08953103
0.08075609 0.112282276 -0.29094028 -0.99999976 -0.09064738 0.0 0.99999976 0.0
-0.06048101

batch_norm1.running_var f4 [33]
00000000: f04c 9c40 b605 4e3f 3981 5840 4733 713e
00000010: 344b b13d e804 1c3e b659 b93d a7a8 1d3f
00000020: 743f 943d b43c 223e f091 1c40 348c da3f
00000030: 0c1f 2a40 faf3 a741 80d3 2140 0e83 8941
00000040: a7f4 f43d 8e4e b43e cb41 e43d 9d71 d53e
00000050: 5ea5 3540 8c8a a93f 2f72 b33f a4cc 0b41
00000060: 7aa1 ac40 441e 0341 41bb 0142 0400 0000
00000070: b2e2 fe41 0400 0000 0400 0000 0400 0000
00000080: 3ca7 a43e
4.884392 0.80477464 3.3828871 0.23554717 0.08656922 0.15236247 0.09050314 0.6158547
0.07238665 0.15843469 2.4464073 1.7074037 2.658145 20.99413 2.528534 17.188992
0.11960726 0.35216182 0.111453615 0.41688243 2.8382182 1.3245406 1.4019221 8.737461
5.3947115 8.194889 32.432865 6e-45 31.860691 6e-45 6e-45 6e-45
0.3215884

batch_norm2.weight f4 [128]
00000000: ff74 dc3e e5d3 503f 35dd 373f 6fd9 f73e
00000010: 5715 073f 3a85 1c3f 8868 513f b4e3 b03e
00000020: 0632 443f 2a6a e83e 8b30 873e 4bce 2f3f
00000030: 30d6 dd3e 30d1 3f3e 21a2 423f 5ec3 a43e
00000040: 7554 0b3f 5e5b ef3e 74d6 f03e 8247 df3e
00000050: 4477 ae3e d21d fb3e 153a 4b3f 6025 393f
00000060: d924 cc3e 8da8 3d3f 8e89 ff3e 30dd 313f
00000070: d3e0 3b3f bb4d 353f 56e8 4f3f 72f5 913e
00000080: aac6 e63e 4a61 cb3e 2f11 083f a060 933e
00000090: ee7b a73e df4c a43e 2e5c 363f 70d6 833e
000000a0: 8d71 8c3e 9e62 e43e d3c3 833e 6afb a33e
000000b0: 3c07 2a3f e942 853e 17a2 023f f345 2dbe
000000c0: 46d7 033f ca0c 8d3e 6e18 fa3e c6e6 093f
000000d0: 40da 303f 6197 b03e 845e 193e 1d54 213f
000000e0: 5e82 b93e e368 273f 059c 513f efba 723e
000000f0: 8915 133f b1aa d73e 7d52 013f b32a 5b3f
00000100: 5501 053f 0e6b 7a3e 06d6 543f c637 1f3f
00000110: cc69 333f d2f5 2e3f 270f f43e 5e1e 243f
00000120: bc90 743e 6cee 0b3f 0855 2f3f e36f 1a3f
00000130: 237a ec3e 72be 393f 9183 553f 546f b13e
00000140: 31d4 523e 2652 543f bea1 013f 7fad b63e
00000150: ea48 0a3f 5b32 f53e 8cab 0d3f f431 1a3f
00000160: 146a 603f 2d51 103f c9cd cf3e d998 963e
00000170: 8bf5 fb3e 915c 503f 14ce cb3e 66dd 363f
00000180: 8a04 043f 976d 983e 84a4 3b3f a765 ea3e
00000190: f705 7d3f 9d75 463f 07aa 0b3f 0b96 463f
000001a0: 39b7 443f 194b 8b3e eb92 0a3f 1450 093f
000001b0: 629b 443f 1eaa 053f 5432 413f 68fb 473f
000001c0: d6b1 2b3f d846 8d3e 6a51 e43e a03f 3d3f
000001d0: 9574 373f 55a1 0a3f 08f7 223f 239c 123f
000001e0: 36bb 183f 91d0 1b3f 6898 623f 8f01 283f
000001f0: f53b b73e 8109 313f ed04 9f3e f057 363f
0.4305801 0.81573325 0.7182191 0.48408076 0.52766937 0.6114079 0.8180013 0.34548724
0.7663883 0.45393497 0.26404223 0.68674153 0.43327475 0.18732142 0.7602864 0.32180303
0.54425746 0.46749395 0.47038615 0.43609244 0.34075367 0.4904619 0.793855 0.72322655
0.39871863 0.74085313 0.49909633 0.6947813 0.7338993 0.7082173 0.8121389 0.28507572
0.45073444 0.39722663 0.5315122 0.28784657 0.32711738 0.32089898 0.71234405 0.2574954
0.27430382 0.4460649 0.2573534 0.3202775 0.6641729 0.2602761 0.5102858 -0.16921215
0.51500356 0.2754882 0.48846763 0.5386776 0.69083023 0.34490493 0.14977461 0.6301897
0.36232275 0.6539442 0.8187869 0.23704122 0.57454735 0.42122415 0.5051649 0.8561203
0.5195516 0.244549 0.83139074 0.6219448 0.7008331 0.6834384 0.4766781 0.64108837
0.23883337 0.5466068 0.6848912 0.60326976 0.46186933 0.7255622 0.8340388 0.3465525
0.20588757 0.8293785 0.50637424 0.35679242 0.5401751 0.4788998 0.55339885 0.6023247
0.8766186 0.56373864 0.4058669 0.29413489 0.49210772 0.81391245 0.39805663 0.7143158
0.51569426 0.2977111 0.73297906 0.4578068 0.98837227 0.77523214 0.54556316 0.775727
0.76842076 0.27205732 0.5413043 0.53637815 0.76799595 0.52212703 0.7546742 0.7811799
0.6706823 0.27593112 0.44593364 0.7392521 0.71662265 0.54152423 0.6365819 0.57269496
0.5966066 0.6086512 0.88513803 0.6562738 0.3578793 0.69155127 0.31058446 0.7122793

batch_norm2.bias f4 [128]
00000000: 3df2 1ebe f588 323e f4f9 1abe 0825 0d3e
00000010: e76c 843e db84 303d e8e4 20be 68d2 853d
00000020: ab0e 453d 1748 60be 38f3 163e 626b 94be
00000030: df42 013c 12ca ea3e e364 44be 2abd 91bc
00000040: 1aa1 093e e04c 2b3e 5192 9ebd 243d 04ba
00000050: 8b1c 9fbe 9ea5 d7bd abf9 a53c c6cd 94bd
00000060: 560d e13d a1b4 3c3e 8acd 283e babe b93d
00000070: 0990 bd3d 8a28 a4bd 0475 cc3d 0c5f 70be
00000080: c4f9 1cbc cbdb 26be 8b6e 51be 67fb 6ebe
00000090: a06f ddbd 9163 9c3e c2ee 423e 85c0 e03c
000000a0: 6a7d 7fbe 4c16 0dbe ad72 9ebe 93d3 373d
000000b0: 5117 a8be 5543 363e 7bec 853c 14ef f43e
000000c0: 6f1b 78bd 2608 783e c62a 143d 274b a33e
000000d0: fd97 0cbe d69a d03b 2c46 03bf 79a6 683d
000000e0: 674c 2fbe 1982 e6bd 0450 ef3d 7527 a1be
000000f0: c6ce a6bd c45c 95be fcea 123e 2526 59bb
00000100: f034 39be 3b5f b53e 173b 173e 48e1 1fbe
00000110: 4e0e 453e f7d5 0cbe 552d 4dbd d3c6 3cbd
00000120: 8a56 aabd 9747 c9bc e084 923d 1b51 25be
00000130: 4a77 2e3e 9cb6 eb3d c273 c7bd 379e 2f3d
00000140: 15aa 8e3e ab3b 8f3d 3139 a13d 4f6e 0ebe
00000150: 10a9 813e 8de8 293e a705 c9bd c97b b1bd
00000160: c953 373e b5d7 1e3e 2e92 24be 6e41 233d
00000170: bb28 68be 1f04 ff3d d730 593e a0c0 803e
00000180: 3918 37be d5b5 ab3e 8421 8b3d 03ea 9e3e
00000190: 315b 133e fc6f 533e 15f7 8b3c 2564 ad3d
000001a0: 6b9e 6abe a4a4 60be 9fb0 563d 545c 573e
000001b0: 3199 7cbd 55a8 5d3e 6d87 bfbe 0d29 fbbd
000001c0: 553a 083e a774 8dbe fa33 3b3e 8727 cc3d
000001d0: 3be7 e0bd fd88 7cbe e99c febd 4338 ba3d
000001e0: 7199 013e 788b 9fbd 64c3 16bd 434f 8c3c
000001f0: 7591 593e 0808 20be 3bae c73e ff3f 493b
-0.15522094 0.17435057 -0.15134412 0.13783658 0.25864336 0.04309545 -0.15712321 0.065342724
0.04810969 -0.219025 0.14741218 -0.28988177 0.0078894785 0.45857292 -0.1917911 -0.017790396
0.13440362 0.16728544 -0.077427514 -0.0005044511 -0.31076464 -0.10529636 0.020260653 -0.07265811
0.10988872 0.1842828 0.16484657 0.09069581 0.09255988 -0.08015545 0.099832565 -0.23473758
-0.009581033 -0.16294782 -0.20452325 -0.2333809 -0.108123064 0.30544713 0.19036391 0.02743555
-0.24950185 -0.13778037 -0.30946866 0.044879507 -0.3283029 0.17799123 0.016348114 0.47838652
-0.060573038 0.24221858 0.036173604 0.31893274 -0.13729854 0.006366114 -0.5127895 0.056799386
-0.17118989 -0.11255283 0.11685184 -0.31475416 -0.08144908 -0.29172337 0.14347452 -0.0033134308
-0.180866 0.35424218 0.14768635 -0.15613282 0.19243738 -0.13753496 -0.05009206 -0.04608805
-0.08317287 -0.02457027 0.0715425 -0.1614422 0.17037693 0.11509439 -0.09738876 0.042875495
0.27864137 0.06993803 0.078722365 -0.13909267 0.25324297 0.16592617 -0.09815531 -0.08666188
0.17903055 0.15511973 -0.16071388 0.03985732 -0.22671787 0.12451958 0.21210037 0.2514696
-0.17880334 0.33537164 0.06793502 0.31037912 0.14390256 0.20648187 0.017085591 0.08466367
-0.22911994 -0.21937805 0.052414533 0.21031314 -0.061669532 0.21646245 -0.3740801 -0.12263689
0.13303502 -0.2762806 0.18281546 0.09968477 -0.10981604 -0.24661632 -0.12432272 0.09092762
0.1265619 -0.077902734 -0.036807433 0.017127639 0.21246894 -0.15628064 0.39000115 0.003070831

batch_norm2.running_mean f4 [128]
00000000: 0c46 5c3e f5d5 7f3e db4c 643e b553 6e3d
00000010: f13e 913d 06aa 573d 06f1 093f eed3 c93d
00000020: f1a8 113e 25ea ea3d 9ef0 543e c707 ca3e
00000030: 17a1 1d3e c33c 953e 1ffb 983e bca1 a13e
00000040: bda2 9c3e 7de9 053e 15a4 f73d 3217 053e
00000050: ade1 3d3d f96d 8f3d 6ef7 ad3e a721 113f
00000060: 4710 503e 0047 0d3f f231 3a3e 175d 193f
00000070: 20b5 913f c4f0 893d adc5 373f 1d1d 843d
00000080: f5df c63e b48f 093e 468c d33d 2edf f23e
00000090: cddc 073d 259b bd3d 0352 3a3e 61e7 a83e
000000a0: 679e f53d da49 df3d af3f ab3e 389d 103f
000000b0: 4b1d 523e da51 fe3e 3337 8e3e 791b 973d
000000c0: a167 023f b5dc 7d3e ee59 f63c 22ca 983e
000000d0: d3b8 883e e2be 633e 39b9 663e b910 3e3e
000000e0: 5c28 bc3e 2753 083f e20b 823e 19c1 123f
000000f0: eb96 133f 5962 c73e 2d2d 3f3e 5c7d 873e
00000100: 07c5 de3e ce99 3d3d 51f6 123e 0c09 ff3e
00000110: 04dd 333e 48db 233f 6f0e e13d db31 cd3d
00000120: 7df3 153e b8fa 3c3e 36a8 b33e 04e1 303e
00000130: 4fdf 163e 0de1 9f3e b52d 5c3e ffd1 643d
00000140: 0ef3 1b3e 649a 8a3e 2ab0 1c3e fb84 443e
00000150: 7e4a 103f f4bb 523e c921 6f3d 8110 d23e
00000160: efc0 383f f46c 0d3e b34d 3e3e a45f b03e
00000170: 3f59 f53d f005 143e ebd3 093e 7bbb 413e
00000180: 91a8 1e3e 5fd8 b53d 76fc 843e 028e 8e3e
00000190: d883 093e b1c3 f83e ce7d 4d3e 08ff e13e
000001a0: 0e21 133e 2da8 ad3d 0cd6 143f f954 663e
000001b0: 6560 f83e 5378 e93d b212 d13d a851 023e
000001c0: 68c9 e63e 2d63 fb3d de2c 363f c998 bb3e
000001d0: 1717 3c3f 4814 813e f2f8 ed3d e5aa 043e
000001e0: 483d 9c3e 00fb c83e 4b70 873e b82e 993e
000001f0: 6736 2e3d 0e14 1e3e fcbe 543d e242 153e
0.21511096 0.24983962 0.22294943 0.058185298 0.07092083 0.05265238 0.538834 0.098548755
0.14224602 0.11470441 0.20794913 0.3945906 0.15393482 0.2914792 0.2987909 0.31568706
0.3059291 0.1307735 0.12091843 0.1299713 0.0463578 0.070033975 0.33977836 0.56691974
0.2031871 0.5518646 0.18183115 0.5990767 1.13834 0.067353755 0.71786004 0.064508654
0.3884274 0.13433725 0.103294894 0.47435898 0.033169556 0.09258107 0.18195347 0.32989028
0.119931035 0.10902758 0.33447024 0.56489897 0.20518987 0.49671823 0.2777649 0.07378287
0.50939375 0.24791224 0.030072179 0.29841715 0.2670351 0.22240785 0.22531594 0.18561067
0.36749542 0.5325188 0.2539969 0.57325894 0.5765216 0.3894222 0.18669577 0.2646283
0.43509695 0.046289258 0.14351775 0.4981159 0.1756478 0.6400647 0.10989081 0.10019275
0.14643665 0.18455017 0.35089272 0.17273337 0.14733623 0.31226388 0.21501811 0.05586433
0.15229437 0.27070916 0.15301576 0.19191353 0.56363666 0.20579511 0.05838183 0.41028216
0.72169393 0.13811094 0.18584327 0.34447968 0.11979913 0.1445539 0.13459747 0.18919174
0.1549399 0.0887916 0.25973862 0.27842718 0.134292 0.485868 0.20067522 0.44139886
0.14368078 0.084793426 0.5813911 0.22493352 0.48511043 0.11399903 0.10208644 0.12726462
0.45075536 0.12274776 0.7116221 0.36640003 0.7347273 0.25210786 0.11619748 0.12955816
0.30515504 0.39253998 0.2645286 0.29918456 0.04253235 0.15437338 0.05193995 0.14576295

batch_norm2.running_var f4 [128]
00000000: bdcb 253d 6a17 cf3c 5826 9a3c ab00 863c
00000010: 31f4 e23c 24d0 ad3c 550b d83d 29cc ca3c
00000020: 73da 5b3d 4ab2 093d 012f 553d a3fd 963d
00000030: 4dee 943c 7bd3 c33d 3b70 c63d 3a5f 053e
00000040: 209f 983d bd44 fa3c 10f1 033d 1303 6e3c
00000050: 4eba 723c 5ee7 003d dd7f 123e a45b 453d
00000060: 8ac9 803d 76f9 da3c e4c3 6f3d 8b35 b43d
00000070: 92a5 df3d 3aa5 9c3c b028 873d 1d07 5b3c
00000080: 034b 743d c499 e23c 3372 8d3c ba3d 673d
00000090: 9dbc f43b 9d17 df3c 3ef5 803d 2330 b23d
000000a0: aab3 eb3c 9267 1e3d 9810 4e3d f83e 163c
000000b0: bbda 553d ab2e b13d ae73 153d d7a3 0c3d
000000c0: a8a8 5c3d 6b74 633d bbac 9d3b c610 f33d
000000d0: 8326 b73c c7f0 ab3d 5f75 ae3d cc53 603d
000000e0: 2d52 a33d 3ee0 333d e43c ae3d 77e2 be3d
000000f0: a293 d03c e5ee bb3d 0827 4f3d 9bbd 7a3d
00000100: ece6 153e f090 663c 5a69 f53c 39f4 993e
00000110: 98fa 213d 77a1 bf3d f85a 2d3d dba9 8f3c
00000120: 560d c13c e3d0 9a3d ccf9 c43d 00c9 673d
00000130: 9004 5f3d 18a2 a13d f9c8 9b3d 8ccc 1c3c
00000140: 2249 103d 7932 4a3d af32 183d 4661 433d
00000150: 8220 b23c f3f4 113d 1057 353c e4bd 203e
00000160: bec7 2f3d 3b6e 453d 68b4 473d 6b98 913d
00000170: 215a c43c 1d89 093d 4ae4 053d 324e 613d
00000180: 6996 da3c 1bac ce3c aaf7 9a3d f269 0e3d
00000190: 6f33 643d 7d0c 093d 1089 0d3d cbe2 4f3d
000001a0: 8a8d 263d 1634 a13c 8838 033e bc32 a03d
000001b0: f423 433d 6c0d 2d3d ba20 a03c 7af0 343d
000001c0: bdf2 203e b00f dd3c 4920 cb3d 74e7 183e
000001d0: ce11 e43d 1b4b 863d 8f2e 0f3d 621d 483d
000001e0: b993 ae3d 0991 8e3d dab7 7c3d 51fa 4f3d
000001f0: 1afe 293c e402 ca3c 86db 133c ed69 0d3d
0.040477503 0.02527972 0.018817112 0.01635774 0.02770433 0.021217413 0.105490364 0.024755554
0.053675126 0.033617295 0.05204678 0.07372596 0.018180037 0.09561821 0.09689375 0.13024607
0.07452226 0.030550355 0.032212317 0.0145271 0.014814926 0.03147065 0.14306588 0.0481831
0.062884405 0.02673028 0.058536425 0.08799275 0.10920252 0.019121755 0.065995574 0.013368395
0.05964185 0.027661212 0.017266368 0.05645535 0.0074687735 0.02723294 0.06296776 0.087005876
0.028772194 0.03867299 0.050308794 0.009170286 0.05221055 0.08651479 0.036487274 0.034335937
0.05387178 0.055530947 0.004811851 0.11868434 0.022357231 0.08395534 0.085184805 0.054767415
0.07974658 0.043915026 0.08507708 0.093205385 0.025461022 0.09176425 0.050574332 0.061215978
0.14638871 0.014072642 0.029957462 0.3006914 0.039545625 0.09356969 0.042323083 0.017537048
0.02356593 0.07559373 0.096179575 0.056588173 0.05444771 0.07892245 0.07606692 0.009570252
0.035225995 0.04936454 0.03715771 0.04770019 0.021744017 0.035633992 0.011068121 0.15697438
0.0429151 0.048200827 0.048756033 0.071091495 0.023968758 0.033578027 0.032688417 0.055006213
0.02668305 0.02522855 0.075667694 0.034769006 0.055713113 0.033459175 0.03455454 0.050753396
0.040662326 0.019678157 0.12814534 0.07822177 0.04764171 0.04224913 0.019546855 0.04417465
0.15717597 0.02698502 0.09918267 0.14932042 0.111362085 0.06557294 0.03495651 0.048856147
0.085242696 0.06961257 0.061698772 0.05077583 0.010375524 0.024659581 0.009024506 0.034524847

batch_norm3.weight f4 [128]
00000000: 32e4 893f 30c2 9b3f 0571 0d3f 6056 9f3f
00000010: e79a 7f3f 3143 803f e58c 683f 502f 8c3f
00000020: 0e88 5c3f a15a 423f 374b 033f 20f9 8d3f
00000030: 46fe 9c3f 95d0 943f 6689 4d3f 696a 2f3f
00000040: b6e5 723f 2f88 9c3f af08 453f 6117 893f
00000050: 3267 8a3f e568 373f ed07 1d3f 0974 673f
00000060: 8170 473f 7518 7e3f 4e4e 8b3f 5666 843f
00000070: 7e9a 663f ac70 823f 64e1 673f f631 8a3f
00000080: 9504 8f3f 3198 2b3f f1c4 aa3f 06d3 683f
00000090: 961a 4d3f 537c ae3f 612c 533f ab0c 5b3f
000000a0: 52b4 3e3f 160f 363f 8aaf 3a3f 6529 793f
000000b0: 9618 8b3f 89ed 193f 4ef0 013f fde1 7d3f
000000c0: 0113 663f 91c4 b33f fe1d 963f a9a6 193f
000000d0: 15fd 463f 3ac0 673f 36c6 823f cd65 603f
000000e0: cec6 973f e791 9f3f f674 853f e18f 9f3f
000000f0: 931e 563f 7a95 533f ec82 9c3f b5cb 343f
00000100: 786b 303f ff7b 473f eb66 133f 6b6b af3f
00000110: 34e2 883f 40fc 2d3f 3e5d 6b3f d267 3f3f
00000120: 8b30 9d3f b01b 5c3f 93e3 bf3f b9bf b23f
00000130: 04b8 8a3f 6722 2d3f 32e1 453f 885d 4f3f
00000140: 78e5 523f 015c b63f 14e8 7a3f c504 4b3f
00000150: 4e83 703f 66bc a33f ceeb 603f a196 853f
00000160: 88e5 503f 9c2e 663f c0bd 323f 9d4c 5a3f
00000170: a898 503f b6f5 823f 0d9c 6c3f 4026 3d3f
00000180: 7807 8c3f 814e 913f 3fe6 523f 5619 9e3f
00000190: 2e54 593f f907 253f 366a 293f fc2e 7d3f
000001a0: 3213 963f 7210 173f d211 993f e489 813f
000001b0: 58e1 4f3f 156a 983f 8b8d 483f 8870 6b3f
000001c0: c105 983f 6c10 463f ef22 7d3f b3e5 893f
000001d0: 7ce0 803f c04b a03f 449a 3e3f afc0 aa3f
000001e0: 9258 8c3f 6e4e 793f 4880 963f 5791 6b3f
000001f0: be40 ac3f dfa9 393f 8578 aa3f 3d68 a53f
1.0772765 1.2168636 0.5525058 1.2448235 0.9984574 1.0020505 0.9083999 1.0951939
0.861451 0.7591954 0.51286644 1.1091652 1.2265098 1.1626154 0.8028778 0.68521744
0.9488176 1.222906 0.76966375 1.071026 1.0812743 0.7164443 0.6134022 0.9041143
0.7790604 0.9925607 1.0883272 1.034373 0.90079486 1.0190635 0.90578294 1.0796497
1.1173273 0.670291 1.3341352 0.90946996 0.8011869 1.3631691 0.8248959 0.85566205
0.74493897 0.7111677 0.729241 0.9732879 1.0866878 0.60128075 0.507573 0.99172956
0.8987275 1.4044362 1.1727903 0.6001993 0.7772992 0.9052769 1.0216739 0.87655336
1.1857545 1.2466401 1.0426319 1.2465783 0.836404 0.8264996 1.2227454 0.7062333
0.68913984 0.7792358 0.57578915 1.3704656 1.0694032 0.6796303 0.9193915 0.7476779
1.2280439 0.8597975 1.4991325 1.3964759 1.0837407 0.6763062 0.77296746 0.8100209
0.8238139 1.4246827 0.98010373 0.7930415 0.93950355 1.279187 0.8785981 1.0436593
0.81600237 0.8991487 0.69820786 0.8527315 0.81482935 1.0231235 0.92425615 0.7388649
1.0939779 1.1352082 0.8238258 1.2351482 0.84894073 0.6446529 0.6617769 0.9889982
1.1724608 0.5900947 1.1958563 1.0120206 0.8120322 1.1907374 0.7834098 0.91968584
1.1876756 0.7736881 0.9888143 1.0773224 1.0068507 1.2523117 0.7445414 1.3340052
1.096453 0.973853 1.1757898 0.92018646 1.3457258 0.7252483 1.331803 1.2922436

batch_norm3.bias f4 [128]
00000000: c901 6fba de3b 25bd 9bb1 7a3c 6131 4d3b
00000010: b33a 873c 2c96 b3bc a2e1 41bc 4862 8b3d
00000020: 394c 1b3d ed24 a9bd 2f03 cfbd 2ddf 5dbd
00000030: cce1 6abd 27ca ee3c f1b2 5abd 749b 47bb
00000040: 607d 07bd cf04 05bd 5ac5 2b3d 914e 37bd
00000050: 9141 e3bb e313 b7bc 5fb5 d43c 2ff6 30bd
00000060: 6acb 56bc 7904 853d d137 ecbc cc95 fc3d
00000070: 419b f0bc 795f dcbc 6f43 f7bc ef51 10bc
00000080: 7523 593c 6e7d 91bd f60a 2bbc 26d5 46bb
00000090: 804a 2d3d 6799 833b c605 ec3c 81b6 b2bd
000000a0: 93e4 70bd 6101 a4bc 01fc 773c 7560 15bd
000000b0: 83c2 9c3c 30f2 43bd 76f6 f9bc 3d1f 16bc
000000c0: 609a a53b fa59 9dbc 5896 4bbd 3524 fabb
000000d0: 7338 da3c 7023 033b a97d 07bd d726 e538
000000e0: ad5c a6bd 85ad ebbc 43e8 37bc 16d1 acbd
000000f0: a6f2 e9bc e081 83bd b43d e4bc 5c69 5b39
00000100: de1b ec3c 191f 05bc 3adc 6bbd ecf6 c23c
00000110: f055 b93c 9e7b bfbc ca5a 95bd 805f 89bd
00000120: 7ac8 b4bc 5e24 4d3c 7ad7 f13c c46d 523d
00000130: 47b9 03bd 04f2 19bd 4976 f7bc 285e f53c
00000140: 86a4 8e3d ce98 e5bb 8c9b bebc a241 c6bc
00000150: f69c 523b bbab 94bd 6176 3cbd 5d76 8cbd
00000160: 0529 6fbd 038d 063c 783d 37bc 6a62 d7bb
00000170: 80d1 3f3c 4983 46bd 1c2c aabc d621 4c3d
00000180: 16a4 ddbc 0fe6 e9bc eb52 3bbd 75d2 a93b
00000190: b105 29bd 03d8 6e3b 0519 ba3c bffc 843c
000001a0: e429 553c 0615 f0bc 1690 e63c 02df 80bd
000001b0: b6f0 b4bc 9538 b93d 9f17 f5bb 4d2b 3b3c
000001c0: 4498 613d 2021 15bd df5b 1e3c f485 9dbd
000001d0: 49b5 0abd 2e64 7fbd 1a0f 4cbc d805 23bb
000001e0: 1db1 833b adc7 263c 1e77 453d 1c5a 5cbd
000001f0: 09f7 463d 4b23 d6bc 05d6 29bd 8506 063d
-0.00091173925 -0.040340297 0.0153011335 0.003130995 0.016507482 -0.021922193 -0.01183358 0.06805855
0.03791449 -0.08258996 -0.10108029 -0.054167915 -0.057344243 0.029149128 -0.053393308 -0.0030457648
-0.03307855 -0.03247529 0.041936256 -0.04475266 -0.0069353064 -0.02234835 0.02596539 -0.04320353
-0.013110021 0.06494994 -0.02883521 0.12333259 -0.029370906 -0.026900994 -0.030183522 -0.008808597
0.0132530825 -0.07104002 -0.010439625 -0.0030339449 0.042307377 0.0040160897 0.028811347 -0.08726216
-0.058811735 -0.020020189 0.015135766 -0.03646894 0.01913572 -0.04783839 -0.03051303 -0.009162721
0.0050538033 -0.019207943 -0.049703926 -0.0076337107 0.026638245 0.0020010136 -0.033078823 0.000109268054
-0.08123145 -0.028769264 -0.011224809 -0.084383175 -0.028558087 -0.06421256 -0.027861454 0.00020924717
0.028821882 -0.00812509 -0.05758307 0.023799382 0.022623986 -0.023374375 -0.07292707 -0.06707668
-0.02206825 0.012520878 0.029521693 0.051374212 -0.032159116 -0.03758432 -0.03020777 0.029952124
0.06964974 -0.007006741 -0.02326753 -0.024201218 0.0032137013 -0.072593175 -0.046011332 -0.068585135
-0.05838873 0.008212331 -0.011184089 -0.006573011 0.011707664 -0.048465047 -0.020772986 0.049836956
-0.027055781 -0.028552083 -0.045733374 0.005182559 -0.041265193 0.003644467 0.022717008 0.0162338
0.013010476 -0.0293069 0.028144877 -0.06292535 -0.022087436 0.09043995 -0.0074796225 0.011423898
0.055076852 -0.036408544 0.009665458 -0.07691565 -0.033864293 -0.0623514 -0.012454772 -0.002487531
0.0040189163 0.010179442 0.048209302 -0.053796872 0.048575435 -0.026139876 -0.04146387 0.03272106

batch_norm3.running_mean f4 [128]
00000000: 3949 213e de23 db3e 40f1 303a 7257 1c3f
00000010: 63e9 9d3d f6b0 0a3d 9e9e 273e 81ab 833d
00000020: b6f2 173e 8641 e93e f280 c63d 3dd3 633d
00000030: a29a ce3e fa47 293d f939 3c3d 8007 5f3e
00000040: ef2a 143d c49b 013f 01c2 643d 7582 113e
00000050: 40ef e73e db33 0c3e 0375 f73d 1691 c83e
00000060: ebf2 553d 59a6 343e b348 6c3e 4fe0 313e
00000070: d3bc c53d d9e0 463f 091a c73d fa15 883f
00000080: aa0f 073f 3b62 963e a39e 3b3f 0dfe e13e
00000090: e815 b63e 55c7 123f 12bd 793e b151 843e
000000a0: f66f c13e 3059 1f3d 068d 433e 450b da3d
000000b0: 51e4 703e c344 253d a26c 033d 0400 0000
000000c0: f7d7 e93d 58d5 c83e bf16 383f 3d56 f23e
000000d0: e083 a23e 9810 b43e c28b 773f a4ae 0f3f
000000e0: 0036 c63e 8a67 e53e 14d9 1b3f 3c1a 2b3f
000000f0: 5b2f 5c3e 5630 fd3d 432f 413f e675 933e
00000100: 7506 be3e 7ec9 b33e 81a5 fd3d c1e8 ff3e
00000110: a1c3 a23c 22df 243c 717d 913b 966a 3b3e
00000120: f973 2b3e 5e31 193f 41d1 953e e7c1 323f
00000130: fd49 873e 4c41 253e 2f92 2f3f 226d 583e
00000140: 1002 1f3e 3a07 013f 458c ab3e 06d6 273f
00000150: f6da f23e 1816 523f 03bb 193f ca1e aa3e
00000160: e902 c53d aa19 1d3f 6668 ca3e 54ec e03d
00000170: 1f3e 613d 9d85 db3e 67e9 2b3e a772 603e
00000180: 32e4 183e f8dd 8a3e 509d b93d 8024 143f
00000190: 6dcf 933d c911 813a 59a0 ce3d 5b73 dc3e
000001a0: eb73 2b3f fd0f 793e 9fad 8e3e c8ae 353e
000001b0: 1381 763e 6914 db3e 463c a43d 901c fc3d
000001c0: 9451 bb3f e0da a53d 1bfb 953c 37d9 ec3d
000001d0: fe13 133e d507 3f3d e2e0 f33d 85fe a23e
000001e0: e98b 263f 873d 863e 3150 ad3e 1a89 ef3e
000001f0: 4f58 9e3f af42 543e b203 ae3d af33 043f
0.15750588 0.42800802 0.0006749816 0.6107093 0.077105306 0.03386017 0.16369101 0.06429196
0.1483868 0.45557803 0.09692563 0.055621374 0.4035235 0.041328408 0.045953725 0.21780205
0.036173757 0.50628304 0.05584908 0.14209922 0.4529972 0.13691656 0.12082865 0.39173192
0.052233618 0.17641582 0.23074608 0.17370723 0.09655156 0.7768684 0.09721763 1.0631707
0.52758276 0.2937182 0.73288935 0.44139138 0.35563588 0.57335407 0.24388531 0.25843576
0.37780732 0.038903415 0.19096765 0.10646681 0.23524596 0.04034878 0.032086022 6e-45
0.11418145 0.39225268 0.7190971 0.4733142 0.31741238 0.3516891 0.9669763 0.56125855
0.38713074 0.44805557 0.6087811 0.66836905 0.2150244 0.12362735 0.7546274 0.28800887
0.371143 0.35114664 0.12385083 0.49982265 0.019868674 0.010062965 0.0044400026 0.18302378
0.16743459 0.59840953 0.2926121 0.6982712 0.26423636 0.1613819 0.68582433 0.21135381
0.1552813 0.5040165 0.33505455 0.6556095 0.4743268 0.8206496 0.6005098 0.33226615
0.09619696 0.61367285 0.39532775 0.10982576 0.054990884 0.42875376 0.16788255 0.21918736
0.149308 0.27122474 0.09063208 0.57868195 0.07217298 0.0009847219 0.10089178 0.4305676
0.6697375 0.24322505 0.27866837 0.17742455 0.24072675 0.4278901 0.08019309 0.12310135
1.4634271 0.08098388 0.018308213 0.11564868 0.14363095 0.04663833 0.11908127 0.31834808
0.65057236 0.26218817 0.33850244 0.46784288 1.23707 0.20728563 0.084967986 0.5164136
