critic_checkpoint.pth (torch_old, 89583 bytes, 9 tensors)

fc1.weight f4 [128, 33]
0	0x3c2d0c1a	0.010561967
1	0x3de6f6fc	0.11277577
2	0xbe077984	-0.13229948
3	0xbe91cfd4	-0.28478873
4	0x3e2de7ea	0.16983
5	0x3e45afec	0.1930539
6	0xbe454982	-0.19266322
7	0x3d09b981	0.033624176
8	0x3e9dfb75	0.3085591
9	0xbe21a379	-0.15785016
10	0xbe5e320f	-0.21698783
11	0xbcc1a549	-0.023638384
12	0xbd0beb17	-0.034159746
13	0xbe1fc086	-0.15600786
14	0xbdbdddcd	-0.09270821
15	0xbb0b615c	-0.0021267748
16	0xbdc176d3	-0.09446492
17	0x3e2a2622	0.16616109
18	0xbe828ac9	-0.2549651
19	0x3dead424	0.11466244
20	0x3d923037	0.071381025
21	0x3e03646d	0.12831278
22	0x3d445399	0.047931287
23	0xbe03c311	-0.1286738
24	0x3d11cef7	0.035597768
25	0x3de7e2e3	0.11322572
26	0xbe179b3a	-0.14805308
27	0x3e536fb3	0.20648079
28	0x3e88d155	0.26722208
29	0x3c0329d0	0.008005574
30	0xbd065c82	-0.032803066
31	0xbd9a8fad	-0.07546935
32	0x3db2b269	0.08725435
33	0xbdc57cc4	-0.09642938
34	0x3df7bf48	0.12097031
35	0x3e216121	0.15759708
36	0xbcc1793c	-0.02361738
37	0xbdf636de	-0.12022184
38	0x3dba6230	0.09100759
39	0x3db6a9d7	0.08919113
40	0xbc7a8517	-0.01529052
41	0x3cac866f	0.021060197
42	0x3d9d05ee	0.076671466
43	0xbcab71c5	-0.020928273
44	0x3ca04b02	0.019567017
45	0xbc496eae	-0.0122944545
46	0x3e216d55	0.15764363
47	0xbd198897	-0.037483778
48	0xbe75c303	-0.24000172
49	0x3bf34329	0.0074237776
50	0x3c6e94ab	0.014561812
51	0x3d9c678d	0.07636938
52	0xbd088197	-0.03332671
53	0x3b076d7d	0.0020664625
54	0xbaf236eb	-0.0018479502
55	0x3c352a11	0.011057393
56	0x3cf666bc	0.030078284
57	0xbc93564e	-0.01798549
58	0xbca1c374	-0.01974652
59	0xbe093534	-0.13399202
60	0x3da3354c	0.0796915
61	0x3e311ccb	0.1729614
62	0xbdcac2bf	-0.09900426
63	0xbca9a8b7	-0.020710332
64	0xbe262dee	-0.16228458
65	0x3ec77849	0.38958958
66	0xbe27de51	-0.163934
67	0x3e09238a	0.13392463
68	0xbe885367	-0.2662613
69	0xbd20e8f4	-0.03928466
70	0x3dd3a6ff	0.10334586
71	0xbbc4725a	-0.005995077
72	0x3d47e198	0.048799127
73	0xbc4c34b0	-0.012463734
74	0x3daf2d56	0.08553569
75	0x3d84ca02	0.064838424
76	0x3bf3811f	0.007431164
77	0x3d86e85b	0.06587287
78	0xbd096efb	-0.033553105
79	0x3d0e4e16	0.034742437
80	0x3d1c693e	0.038186304
81	0x3da9d13c	0.082918614
82	0xbd8df8fe	-0.06932257
83	0x3e00e80f	0.12588523
84	0x3e08fa4d	0.13376732
85	0xbd4abc40	-0.049495935
86	0xbd686193	-0.05673368
87	0x3a550136	0.00081254856
88	0xbd995f41	-0.07488871
89	0xbb3f824b	-0.0029221948
90	0x3c95d1e1	0.018288555
91	0x3d493cd3	0.049130272
92	0x3db7e1f6	0.089786455
93	0x3e2fea5d	0.17179246
94	0x3e5936ba	0.21212283
95	0x3e0c7962	0.13718179
96	0xbe9f659b	-0.31132206
97	0xbc9760a8	-0.018478706
98	0xbf300d09	-0.6876989
99	0xbe36218b	-0.17786233
100	0x3d431edb	0.047636848
101	0xbcefd035	-0.029274086
102	0x3de947c6	0.11390643
103	0x3e0d83de	0.13819835
104	0x3e3e0ed5	0.18560345
105	0x3ddd62cd	0.108098604
106	0x3d1cc077	0.038269486
107	0xbd9879a2	-0.074450746
108	0x3d4db914	0.050225332
109	0xbd05e535	-0.032689292
110	0xbb1f0754	-0.0024265843
111	0xbc4ebcf2	-0.01261829
112	0x3e211766	0.15731582
113	0xbced259b	-0.028948596
114	0x3d7b7cb1	0.061398212
115	0xbcf15ac7	-0.029462231
116	0xbd80841e	-0.06275199
117	0xbe10f707	-0.14156733
118	0xbdbdc8b8	-0.092668
119	0xbb9b72a0	-0.004743889
120	0xbbb0a61e	-0.0053908965
121	0x3b349a1e	0.0027557681
122	0x3d03579c	0.032065973
123	0xb70f5881	-8.544071e-06
124	0x3cc2eb55	0.023793856
125	0xbe0d30ec	-0.13788193
126	0xbc277581	-0.010220886
127	0xbdd23783	-0.10264494
128	0xbdab841e	-0.08374809
129	0xbdda98e2	-0.10673691
130	0xbdc9ad2f	-0.09847485
131	0x3f943903	1.1579899
132	0xbd1fa2a0	-0.03897345
133	0x3e2871b1	0.1644962
134	0x3d90bfaa	0.07067807
135	0xbdcc52ff	-0.09976768
136	0xbde0023f	-0.109379284
137	0x3e3775ab	0.1791598
138	0xbdd9c8f5	-0.10634033
139	0x3da95761	0.08268619
140	0x3d0aba5c	0.033869132
141	0x3e25c5ee	0.16188785
142	0xbe20757d	-0.15669818
143	0x3d5bfa1b	0.053705316
144	0xbe040cec	-0.12895554
145	0x3ccc78a5	0.024959872
146	0x3d812a3b	0.06306883
147	0xbde10e6f	-0.10989081
148	0xbe3dc0f4	-0.18530637
149	0xbe34c2a6	-0.17652377
150	0x3dbc2d56	0.09188335
151	0x3dcbb99c	0.099475116
152	0xbd35b5bc	-0.04436277
153	0x3e1508a5	0.14554079
154	0x3e943298	0.2894485
155	0x3e30234d	0.17200966
156	0xbbd1208b	-0.0063820533
157	0xbd0dc377	-0.034610238
158	0x3d106134	0.03524895
159	0x3cdbd710	0.026835948
160	0x3e7defb1	0.24798466
161	0xbaf34f00	-0.0018562973
162	0xbd47fc96	-0.04882487
163	0x3cf31820	0.02967459
164	0xbeabeefe	-0.33580774
165	0x3d450117	0.048096742
166	0xbe3e915a	-0.18610135
167	0xbd5f77f5	-0.05455776
168	0xbbdb4ca7	-0.0066924873
169	0xbc55c6e1	-0.013047905
170	0x3d5dc563	0.05414332
171	0x3dc0d7d5	0.09416167
172	0xbcbf3903	-0.023342615
173	0x3d887474	0.06662837
174	0x3dc55296	0.09634893
175	0xbe04e3f7	-0.12977587
176	0xbe019805	-0.12655647
177	0xbd2205e1	-0.039556388
178	0x3c90b54f	0.01766458
179	0x3d884717	0.06654184
180	0xbe9048b4	-0.28180468
181	0xbbbb87a0	-0.005722955
182	0xbe898dde	-0.2686605
183	0xbeb86d9a	-0.3602112
184	0x3e2e2688	0.17006886
185	0xbcf805d0	-0.03027621
186	0xbcd4a6ae	-0.025958385
187	0xbc812f3b	-0.015769592
188	0x3da0c59b	0.0785019
189	0xbdec592e	-0.11540447
190	0x3d951fd4	0.07281461
191	0xbd5cd3df	-0.053912994
192	0xbee55479	-0.4479101
193	0x3d215f67	0.039397623
194	0x3e20478c	0.15652293
195	0x3ee4c1d9	0.44679144
196	0xbe0f0427	-0.13966428
197	0xba9d8fc8	-0.0012021
198	0x3bfb0983	0.007661046
199	0xbea52375	-0.32253614
200	0xbe284976	-0.16434273
201	0x3e5912ee	0.21198627
202	0x3e00daa9	0.12583412
203	0xbe935cd5	-0.28781763
204	0x3e621792	0.22079304
205	0xbd46d396	-0.048541628
206	0xbdb1f8e1	-0.08690048
207	0x3d977034	0.07394448
208	0xbd34a68a	-0.044104137
209	0xbc3b174b	-0.011419128
210	0x3d7974e2	0.060902484
211	0xbdbbd285	-0.09171013
212	0x3ea7d0b0	0.32776403
213	0x3e6dbd5a	0.23216763
214	0x3e38c4e2	0.18043855
215	0x3e45fc47	0.19334517
216	0x3caa1fea	0.020767171
217	0xbc9e2e94	-0.01930932
218	0x3befb3c2	0.00731513
219	0x3c456084	0.012046937
220	0x3a315cb1	0.0006765826
221	0x3d17d6fe	0.037070267
222	0x3dc64157	0.09680431
223	0x3e084514	0.13307601
224	0x3dc6f6ec	0.09715065
225	0xbe573d29	-0.21019424
226	0xbd564e8e	-0.05232101
227	0xbdaeb204	-0.085300475
228	0x3d5c7975	0.053826768
229	0x3d1f119c	0.038835153
230	0xbe36279d	-0.17788549
231	0x3c707809	0.014677056
232	0xbc832119	-0.016006993
233	0xbdeaaeb5	-0.11459104
234	0x3d924f81	0.071440704
235	0xbdd10a1d	-0.10207007
236	0xbe5c66f0	-0.21523643
237	0xbe11e742	-0.14248374
238	0x3c911b68	0.017713264
239	0x3b837eef	0.0040129344
240	0x3d4421de	0.04788386
241	0xbcca690f	-0.024708299
242	0xbc0743ad	-0.008255881
243	0xbb89095c	-0.004182024
244	0xbd4ddfe2	-0.05026234
245	0xbb9facd4	-0.0048728976
246	0x3dc54bef	0.09633624
247	0x3df32eb8	0.11874145
248	0xbd7cc0a3	-0.06170715
249	0xbd9bc053	-0.07605042
250	0xbba512b2	-0.005037629
251	0xbba2d416	-0.0049691303
252	0x3cc31ef4	0.02381847
253	0xbaf2d90e	-0.0018527822
254	0xbd4aec5d	-0.04954182
255	0xbc432dcb	-0.011912773

fc1.bias f4 [128]
0	0x3d982f2b	0.074308716
1	0x3de1557d	0.11002634
2	0xbda2b911	-0.07945455
3	0x3df00fe9	0.117217846
4	0x3d417994	0.047235087
5	0x3eb893da	0.36050302
6	0x3e849c46	0.25900477
7	0xbc7461eb	-0.014915924
8	0x3de23d35	0.110468306
9	0x3eb7bc11	0.3588567
10	0xbe252d0d	-0.16130467
11	0xbd719eee	-0.058989458
12	0x3ec7eac7	0.39046308
13	0xbe1aed2d	-0.15129538
14	0x3df3e5a6	0.11909036
15	0x3e274a89	0.16337027
16	0x3d980549	0.07422883
17	0x3e059370	0.13044524
18	0x3e340024	0.17578179
19	0x3de7c336	0.113165304
20	0x3e0e2a40	0.13883305
21	0x3dd79fc2	0.10528518
22	0x3d7c318e	0.061570697
23	0x3e8be98e	0.27326626
24	0x3e8ae885	0.27130523
25	0x3cf06522	0.029345099
26	0x3e46bfc2	0.19409087
27	0x3e991a00	0.2990265
28	0x3ec672c4	0.38759434
29	0x3e0bfd6c	0.13670892
30	0x3cd95bb8	0.026532993
31	0xbdb0f41a	-0.08640309
32	0xbd0f2304	-0.034945503
33	0x3ee7e4b4	0.45291674
34	0x3e4bc00b	0.19897477
35	0x3efa83cc	0.48928678
36	0x3e185b1d	0.14878507
37	0x3e6356f0	0.22201133
38	0x3cc465e7	0.023974372
39	0x3dae278b	0.08503636
40	0x3ec1fd71	0.37888673
41	0xbdc79671	-0.09745491
42	0x3c6d119f	0.014469533
43	0x3e616de9	0.22014584
44	0x3e319f23	0.17345862
45	0x3a0393ee	0.00050192967
46	0x3d703716	0.058646284
47	0x3e0688ad	0.13138075
48	0x3f021eea	0.5082842
49	0x3e965d3e	0.29368013
50	0x3e80b71b	0.25139698
51	0x3defdded	0.11712251
52	0x3eb3976e	0.3507647
53	0x3db29e1f	0.087215655
54	0xbd1101bc	-0.035402045
55	0x3e4dd5ea	0.20101133
56	0xbdfc6b40	-0.12325144
57	0x3e29a956	0.16568503
58	0x3e1a7976	0.15085396
59	0x3dd23e71	0.10265816
60	0x3e0d896c	0.13821954
61	0x3e0d3088	0.13788044
62	0x3ea287ff	0.31744382
63	0x3da25e65	0.079281606
64	0x3d448d81	0.04798651
65	0x3e74cf5e	0.2390723
66	0x3e7c0b6a	0.24613729
67	0x3dbb3f46	0.09142928
68	0x3e237d75	0.15965827
69	0x3ea9c6e2	0.33159548
70	0x3e463c58	0.19358957
71	0xbdc8b12d	-0.097994186
72	0xbdee2568	-0.116282284
73	0x3dd05f83	0.101744674
74	0x3ec83230	0.3910079
75	0x3d5bc087	0.053650405
76	0x3e077f18	0.13232076
77	0x3e1748bd	0.14773841
78	0xbe23bd91	-0.15990283
79	0x3ea0a897	0.31378624
80	0x3da4b0a4	0.08041504
81	0x3dfa5896	0.12223928
82	0xbdb3c780	-0.08778286
83	0x3e1b5901	0.15170671
84	0x3e2323f2	0.15931681
85	0xbcd86411	-0.026414903
86	0x3e901f8c	0.28149068
87	0x3e9960d8	0.29956698
88	0x3d651f1d	0.055937875
89	0x3c24ffd1	0.010070757
90	0x3e7b95c3	0.24568848
91	0xbb8dceb5	-0.00432762
92	0x3d5d7e3b	0.05407546
93	0x3e303042	0.17205909
94	0x3e73e31b	0.23817103
95	0x3d79eb3e	0.06101536
96	0x3d2a27eb	0.041541975
97	0xbdf2d83d	-0.118576504
98	0x3d6559df	0.05599391
99	0x3e510c30	0.20414805
100	0x3edc01fc	0.42970264
101	0x3db7a7bd	0.089675404
102	0x3e14a233	0.14514999
103	0x3e4d2f73	0.20037632
104	0x3e64c5f7	0.22341143
105	0x3e889258	0.2667415
106	0x3e782b4b	0.24235265
107	0xbe97768f	-0.2958264
108	0x3e9f0034	0.31054842
109	0x3d79870a	0.0609198
110	0x3eb6c15d	0.356944
111	0x3d8f8f26	0.07009725
112	0x3e7f3676	0.24923119
113	0x3e7e9db0	0.2486484
114	0x3de0cc6e	0.10976492
115	0x3caecc31	0.0213376
116	0x3d9290b0	0.07156503
117	0x3ebff840	0.37494087
118	0x3d181cbb	0.037136775
119	0x3dde9912	0.108690396
120	0xbd96674e	-0.073439226
121	0x3e72bb78	0.23704326
122	0x3e5faa53	0.21842317
123	0x3e512c92	0.20427158
124	0x3e8450fb	0.25843033
125	0x3e897a49	0.2685111
126	0x3e1a0a1f	0.15042923
127	0xbd8e16c2	-0.069379345

fc2.weight f4 [128, 132]
0	0xbdb6c17d	-0.08923624
1	0x3d55230d	0.05203538
2	0xbcbacbff	-0.022802351
3	0xbcec5416	-0.028848689
4	0x3d690df7	0.056898084
5	0x3d9937d9	0.07481355
6	0x3e2976c5	0.16549213
7	0x3d2e8df2	0.04261584
8	0x3d4106a2	0.047125466
9	0x3ded807a	0.115967706
10	0xbc666c84	-0.014063958
11	0xbe2087c4	-0.1567679
12	0x3de2b1f2	0.110690966
13	0xbc2d562b	-0.010579626
14	0x3e2745c8	0.16335213
15	0x3e147fd2	0.14501885
16	0x3d8820e7	0.066469006
17	0xbe44f7aa	-0.19235101
18	0xbd4d82c4	-0.050173536
19	0xbddc0765	-0.10743598
20	0x3dac7ba2	0.084220186
21	0x3d42049a	0.04736767
22	0x3d9a1850	0.075241685
23	0xbdf96a47	-0.12178474
24	0x3df3c6d3	0.11903157
25	0xbcb46dc3	-0.022024995
26	0x3d456ee1	0.048201445
27	0x3dc8cc19	0.098045535
28	0x3dc912a5	0.09818009
29	0xbc9c0ce8	-0.019049123
30	0xbd6e9607	-0.058248546
31	0xbdb012d0	-0.08597338
32	0xbcf41f5d	-0.029800111
33	0xbd5155e4	-0.051107302
34	0xbe6ab7ed	-0.22921725
35	0x3dac33c9	0.08408315
36	0x3dd3cc56	0.10341708
37	0x3d604f49	0.054763112
38	0xbd411a80	-0.047144413
39	0xbde7b22f	-0.11313283
40	0xbd081f38	-0.033232898
41	0xbd9b5c53	-0.07585969
42	0x3d7b9907	0.061425235
43	0xbd85dda1	-0.06536413
44	0xbd77a899	-0.06046352
45	0x3d051f94	0.03250082
46	0x3e1f7aab	0.15574138
47	0x3d6eb701	0.058279995
48	0x3ddd422c	0.10803637
49	0x3d8bd7b9	0.06828255
50	0x3c2204d1	0.009888844
51	0xbdb9f436	-0.09079783
52	0x3cf5bb33	0.02999649
53	0xbd0d1476	-0.03444334
54	0x3d8121a0	0.063052416
55	0xbe0daff9	-0.1383666
56	0xbc8be0bf	-0.01707494
57	0x3cacda2f	0.021100132
58	0xbd45e010	-0.048309386
59	0x3bdcef4a	0.0067423927
60	0xbdb50074	-0.08837977
61	0xbd87bb0f	-0.066274755
62	0x3b6465d5	0.0034850736
63	0x3def6742	0.11689617
64	0xbd92cf8f	-0.07168495
65	0xbb813316	-0.0039428575
66	0x3d9da85e	0.07698129
67	0x3dec9866	0.11552505
68	0x3d7707d2	0.060310192
69	0xbe0feb91	-0.14054705
70	0x3df9c480	0.121956825
71	0xbd40ab5b	-0.047038417
72	0x3d26b7d0	0.04070264
73	0x3be3df59	0.0069541153
74	0xbdce19bd	-0.10063503
75	0x3e155957	0.14584862
76	0x3de0986f	0.109665744
77	0xbdf1d1b1	-0.118075736
78	0xbd7b8e97	-0.06141528
79	0x3de64081	0.11242772
80	0x3d9995bf	0.07499265
81	0x3e16da05	0.14731605
82	0xbd67bec4	-0.056578413
83	0xbd47fb02	-0.048823364
84	0x3d542836	0.05179616
85	0x3db19ece	0.08672868
86	0xbdf8ad14	-0.12142387
87	0x3dc93a7e	0.098256096
88	0x3e8e82bb	0.27834114
89	0x3cb4e99d	0.022084052
90	0xbe090f36	-0.13384709
91	0xbd5a1705	-0.05324461
92	0xbd12efac	-0.0358731
93	0x3d4486e9	0.047980223
94	0x3cc71edd	0.024306709
95	0x3b07c750	0.0020718165
96	0xbdcea7f8	-0.10090631
97	0x3bed5e88	0.007243935
98	0xbdb82ea2	-0.089932695
99	0x3cbc3e46	0.022978913
100	0x3e3acde7	0.18242608
101	0x3cc04b2c	0.023473345
102	0x3e19c9f7	0.1501845
103	0x3c300748	0.0107439235
104	0xbd530ee8	-0.051527888
105	0xbe3594a0	-0.17732477
106	0x3d13bc68	0.03606835
107	0xbb33d02d	-0.0027437315
108	0x3dd40c39	0.10353894
109	0xbdc22d72	-0.09481324
110	0xbcebedb6	-0.028799873
111	0xbddc806d	-0.10766683
112	0xbd431bef	-0.04763406
113	0xbe0ec475	-0.1394213
114	0xbe78d549	-0.24300112
115	0xbc417819	-0.011808419
116	0xbb99056b	-0.0046698353
117	0xbd5ab356	-0.053393684
118	0xbcde7fa9	-0.027160482
119	0x3c8c6435	0.017137626
120	0x3d6b029a	0.057375528
121	0x3cceeb63	0.025258726
122	0x3db20fd6	0.08694427
123	0x3cac633a	0.021043409
124	0x3cb44b9c	0.02200871
125	0xbe91d5ec	-0.28483522
126	0xbe06a00f	-0.13146995
127	0xbdd2cd2b	-0.10293039
128	0x3c320269	0.010864832
129	0x3c8d9a0a	0.017285366
130	0x3c48d8d2	0.012258725
131	0x3ce5312d	0.02797755
132	0xbc77a11b	-0.015114094
133	0x3d5ded17	0.054181185
134	0x3c763dfc	0.015029427
135	0xbda972e0	-0.08273864
136	0xbd6a0713	-0.057135653
137	0xbd593d16	-0.05303677
138	0x3dca4eab	0.09878286
139	0x3d59b5c9	0.05315188
140	0xbc3a7663	-0.011380765
141	0xbc1c922a	-0.009556333
142	0xbd828e9f	-0.06374859
143	0x3daa2d89	0.083094664
144	0xbd1787ef	-0.03699487
145	0xbdcde91c	-0.10054228
146	0x3d22f628	0.039785534
147	0x3df9ad00	0.121912
148	0xbd8cebd3	-0.068809174
149	0xbe311991	-0.17294909
150	0x3b64177c	0.0034804037
151	0xbd28d6b7	-0.041220393
152	0x3b8e334c	0.004339611
153	0xbd44079b	-0.047858816
154	0x3deea7ab	0.11653074
155	0xbe064d3c	-0.131154
156	0x3d22aff8	0.039718598
157	0xbc858d02	-0.01630259
158	0x3d9581b6	0.07300131
159	0x3d0772e1	0.03306854
160	0x3c07d099	0.00828948
161	0x3a152df2	0.00056907453
162	0x3d230530	0.03979987
163	0x3e38a8d7	0.18033157
164	0xbbaea6fb	-0.005329964
165	0xbb666061	-0.003515266
166	0xbe4435b0	-0.19161105
167	0xbd8df94c	-0.06932315
168	0xbe18f274	-0.14936239
169	0x3e26ff52	0.16308334
170	0x3e7a9a30	0.2447288
171	0xbc979ffe	-0.018508907
172	0x3daea703	0.08527949
173	0x3c62b71b	0.013837601
174	0x3e08cb64	0.13358837
175	0x3cd09c25	0.02546508
176	0xbbc8a630	-0.0061233267
177	0xbd6d61f4	-0.057954744
178	0x3e87d58d	0.26530114
179	0x3d5c3a37	0.053766456
180	0x3c8cedce	0.017203238
181	0x3cb05388	0.021524206
182	0xbda9b55b	-0.08286544
183	0xbded657e	-0.11591624
184	0xbd818ad9	-0.06325311
185	0xbb925516	-0.0044657094
186	0xbd2f3e29	-0.04278389
187	0x3d7ca9d4	0.0616854
188	0xbd1e13fd	-0.03859328
189	0x3e482c05	0.19548042
190	0x3ce1b33f	0.027551292
191	0xbe1337bf	-0.14376734
192	0x3d6885dd	0.056768287
193	0xbcd91efb	-0.02650403
194	0x3dba43a6	0.09094934
195	0x3e003696	0.12520823
196	0xbd5d77a0	-0.05406916
197	0xbdabf07a	-0.08395477
198	0xbd195539	-0.03743479
199	0xbe4c342b	-0.19941776
200	0xbd977758	-0.0739581
201	0xbda4553a	-0.08024068
202	0x3aa227c5	0.0012371471
203	0x3d18dda5	0.03732075
204	0xbdd7deb1	-0.10540522
205	0x3dfdcfc9	0.123931475
206	0x3d1c49e2	0.038156398
207	0x3d525fab	0.051360767
208	0x3d7c0e86	0.061537288
209	0x3e21601c	0.15759319
210	0xbd8f78cc	-0.07005462
211	0x3e3687e5	0.17825277
212	0x3d90f3d5	0.07077757
213	0xbcadeced	-0.02123114
214	0x3dc93f29	0.098265
215	0xbe69fe5f	-0.22850941
216	0xbbc4ef07	-0.0060099396
217	0x3d737983	0.059442054
218	0x3df041e3	0.11731317
219	0x3cdbf301	0.026849272
220	0x3d35e64e	0.04440909
221	0x3d8da0b7	0.069154195
222	0xbab2eee4	-0.0013651517
223	0xbb9224ed	-0.0044599683
224	0xbc25aa75	-0.010111441
225	0x3c9eeea6	0.019400906
226	0xbda8c4d7	-0.08240669
227	0xbe11ca64	-0.14237362
228	0xbd7d1cc5	-0.061795015
229	0xbe23ea5f	-0.16007374
230	0xbd751d34	-0.059842303
231	0xbdcd22b3	-0.10016384
232	0xbdd2a21c	-0.10284826
233	0xbe034d2c	-0.12822407
234	0x3e76d1fb	0.24103539
235	0x3e156fdf	0.14593457
236	0x3d8983bd	0.0671458
237	0x3d21a101	0.039460186
238	0xbd2a219b	-0.041535955
239	0x3d150266	0.03637924
240	0xbcd56268	-0.0260479
241	0xbd995585	-0.07487015
242	0xbdc7748a	-0.09739025
243	0x3ce9d9d7	0.028546257
244	0x3b69c96d	0.0035673038
245	0x3e2006f5	0.15627654
246	0xbdbca46d	-0.09211049
247	0xbd5dffda	-0.054199077
248	0xbd1abda7	-0.037778523
249	0x3c1da2d8	0.0096213445
250	0xbd49cbfc	-0.0492668
251	0x3d18f4e4	0.03734292
252	0xbd287687	-0.04112866
253	0x3dffb3af	0.12485444
254	0x3d3c5e1c	0.045988187
255	0x3d27e2f6	0.04098793

fc2.bias f4 [128]
0	0x3eaf40ca	0.34229118
1	0x3e8fb63f	0.2806873
2	0xbddd4289	-0.10803706
3	0xbd834b2c	-0.06410822
4	0xbce58ed5	-0.02802221
5	0x3e40c1ef	0.1882398
6	0x3c9b66ce	0.01896992
7	0xbd40128d	-0.04689269
8	0x3e9afa3f	0.30269048
9	0x3c9d3b9a	0.01919346
10	0x3e01624a	0.1263515
11	0xbd436e06	-0.04771235
12	0x3e3d10e5	0.18463476
13	0x3e94ee26	0.29087943
14	0x3e73ec8f	0.23820709
15	0xbcb0bdac	-0.021574818
16	0xbd916c1d	-0.07100699
17	0x3d8bd4b9	0.06827683
18	0x3e87a39c	0.26492012
19	0x3deaf3c3	0.11472275
20	0x3e5a49ad	0.21317168
21	0x3e8af0a9	0.27136734
22	0x3e55f257	0.20893227
23	0xbdaea038	-0.08526653
24	0x3bcfe0d9	0.0063439426
25	0x3e89917b	0.26868805
26	0xbdc60c53	-0.096703194
27	0xbd202017	-0.039093103
28	0xbd2c8850	-0.042122185
29	0x3e060f4a	0.1309177
30	0x3dd1a4e6	0.1023653
31	0x3e201ff0	0.15637183
32	0xbb91bd9d	-0.0044476525
33	0x3e95bce9	0.2924569
34	0x3ae63202	0.0017562511
35	0x3e1c7c13	0.15281706
36	0x3e94592d	0.28974286
37	0x3e670eff	0.22564314
38	0x3e2f5a5c	0.17124313
39	0x3e6d0647	0.23146926
40	0xbd03c856	-0.032173477
41	0xbda30ee1	-0.07961822
42	0x3e599679	0.21248807
43	0xbd79804b	-0.060913365
44	0xbdc08895	-0.09401051
45	0xbd473363	-0.04863299
46	0x3e406150	0.18787122
47	0xbdc73f0a	-0.097288206
48	0x3c9f4c0a	0.019445438
49	0x3e79cd8b	0.24394815
50	0x3e6c6c5a	0.23088208
51	0xbbf1f99f	-0.0073844935
52	0x3e55afca	0.2086784
53	0x3e3ce5c2	0.1844702
54	0x3b697263	0.0035621158
55	0x3cc171f0	0.0236139
56	0x3e3805d3	0.17970972
57	0xbdc3405e	-0.095337614
58	0xbd25c539	-0.04047129
59	0xbd2b7565	-0.041860003
60	0x3e8dc7e8	0.2769158
61	0xbca5c05c	-0.020233326
62	0x3e4ac2a2	0.19800809
63	0xbcf3a9cd	-0.029744053
64	0x3ccfa14a	0.025345463
65	0x3e4e0ea5	0.20122774
66	0xbd86d1cb	-0.065829836
67	0x3e7c52fc	0.24641031
68	0x3e8afac4	0.27144444
69	0x3e51c4d8	0.20485246
70	0x3e893430	0.26797628
71	0x3c8865fb	0.01665019
72	0x3e67f5f3	0.22652416
73	0xbcab2de7	-0.020895911
74	0xbd0ed787	-0.03487351
75	0xbcd83d88	-0.026396528
76	0x3e3b6086	0.1829854
77	0x3dab873e	0.08375405
78	0xbd762990	-0.06009823
79	0x3e9e400c	0.3090824
80	0x3ea9db43	0.33175096
81	0x3e4b2b42	0.1984072
82	0xbd83f479	-0.06443114
83	0x3d9780c3	0.07397606
84	0xbd21c188	-0.039491206
85	0xbd960766	-0.0732563
86	0x3e366972	0.17813662
87	0x3e448982	0.1919308
88	0xbdd6e7dd	-0.10493443
89	0xbd5d8ee7	-0.05409136
90	0x3e2f3442	0.17109779
91	0x3cd54f45	0.026038775
92	0xbd7b2365	-0.06131305
93	0x3e6bbb8d	0.23020764
94	0x3d803a20	0.062610865
95	0xbcf90bb3	-0.030401086
96	0xbdaf16ec	-0.08549294
97	0x3e43e075	0.19128592
98	0x3d8ba34a	0.06818254
99	0xbdf0ec2e	-0.11763798
100	0x3e4d6b84	0.20060545
101	0x3e98b434	0.29824984
102	0xbd370ab4	-0.04468794
103	0x3c7bf99e	0.015379338
104	0xbc7f4b08	-0.015581854
105	0x3e4ce13e	0.20007798
106	0x3e407b75	0.18797095
107	0xbdc47174	-0.09591952
108	0xbd72c3f0	-0.05926889
109	0x3e46a9d4	0.19400722
110	0xbc9289ff	-0.017888067
111	0xbdbeb19e	-0.093112215
112	0xbd619157	-0.055070248
113	0x3e5e46b9	0.21706666
114	0x3e1eec26	0.15519771
115	0xbd9e3aa9	-0.07726032
116	0x3e2a65c2	0.1664038
117	0xbd05cf78	-0.03266856
118	0x3e79d6af	0.24398302
119	0x39c475f5	0.00037471918
120	0x3e43fc48	0.19139206
121	0xbd49a68c	-0.049231097
122	0x3ca730e2	0.020409051
123	0x3dc1e249	0.094669886
124	0xbd006132	-0.031342693
125	0x3e4a877f	0.1977825
126	0xbca34d88	-0.01993443
127	0xbd567d96	-0.05236586

fc3.weight f4 [1, 128]
0	0x3e099162	0.13434365
1	0x3de7a72c	0.113111824
2	0xbdfe997d	-0.12431619
3	0xbddb11de	-0.10696767
4	0xbde8f23d	-0.11374328
5	0x3da7ee94	0.08199802
6	0xbda4da33	-0.08049431
7	0xbd9a4cbe	-0.07534169
8	0x3e072c7a	0.1320056
9	0x3db57373	0.08859911
10	0x3dbe9147	0.09305053
11	0xbdafc2ad	-0.08582053
12	0x3de32005	0.110900916
13	0x3deb6087	0.114930205
14	0x3e22be5f	0.15892933
15	0xbdf57fa7	-0.119872384
16	0xbdbd8c49	-0.09255273
17	0x3e1a0ec2	0.15044692
18	0x3dace3b0	0.084418654
19	0x3e5e0ae7	0.21683846
20	0x3dc011e5	0.09378413
21	0x3d9aef15	0.075651325
22	0x3dc8d69b	0.09806558
23	0xbdade81c	-0.08491537
24	0xbd8c71cf	-0.06857645
25	0x3e090c0b	0.133835
26	0xbe1da743	-0.15395837
27	0xbd8511f7	-0.06497567
28	0xbe4ffbf1	-0.20310952
29	0x3d93407f	0.07190036
30	0x3d93f8c0	0.0722518
31	0x3dc4a915	0.09602562
32	0xbdbd13e3	-0.09232309
33	0x3df3a2b4	0.118962675
34	0xbdc4f52c	-0.09617075
35	0x3dc5ac2c	0.0965198
36	0x3db032ab	0.08603414
37	0x3dd847e3	0.10560586
38	0x3db9a385	0.09064392
39	0x3dc988ff	0.09840583
40	0xbd8de72c	-0.06928858
41	0xbdc0fc30	-0.09423101
42	0x3e225b71	0.15855195
43	0xbdde1600	-0.1084404
44	0xbda34841	-0.07972766
45	0xbd9d66bb	-0.0768561
46	0x3da8d15a	0.08243056
47	0xbde91dca	-0.11382635
48	0xbd88ce45	-0.06679968
49	0x3e06a961	0.1315055
50	0x3deeced5	0.11660544
51	0xbd92303e	-0.07138108
52	0x3db2c521	0.087290056
53	0x3e0244e1	0.12721588
54	0xbd884df1	-0.06655491
55	0xbd5d062b	-0.05396096
56	0x3db4b804	0.08824161
57	0xbdbfee86	-0.093716666
58	0xbd98c4ba	-0.074593976
59	0xbe280644	-0.1640864
60	0x3d96a308	0.073553145
61	0xbddeb4a6	-0.108743
62	0x3dd9fcb9	0.10643906
63	0xbde11ee2	-0.109922186
64	0xbd9d51d7	-0.07681625
65	0x3d9582ec	0.07300362
66	0xbd9e22cf	-0.07721483
67	0x3dfd95c3	0.123820804
68	0x3dbec056	0.09314029
69	0x3dc3a565	0.09553031
70	0x3ded3608	0.11582571
71	0xbd4266ef	-0.047461446
72	0x3dd71417	0.10501879
73	0xbe267160	-0.16254187
74	0xbd6f758a	-0.058461703
75	0xbde678ea	-0.11253531
76	0x3db348d5	0.08754126
77	0x3dc99465	0.09842757
78	0xbd359d60	-0.044339538
79	0x3db78a3d	0.08961914
80	0x3dde45be	0.10853146
81	0x3dc17bb4	0.094474226
82	0xbe183b74	-0.1486643
83	0x3da6a531	0.081369765
84	0xbd9833f5	-0.07431785
85	0xbdacdb6d	-0.0844029
86	0x3dd792dd	0.10526059
87	0x3d9d09d1	0.07667888
88	0xbdd32e9c	-0.103116244
89	0xbdd6bf79	-0.10485739
90	0x3daba6cc	0.08381423
91	0xbdba0ca4	-0.09084442
92	0xbdf40a9b	-0.11916085
93	0x3e39c277	0.18140589
94	0x3d85f2dd	0.06540463
95	0xbdb4662a	-0.08808549
96	0xbdda30d9	-0.10653848
97	0x3db36c98	0.08760947
98	0xbd342352	-0.043978997
99	0xbe28b1fb	-0.16474144
100	0x3e0d8584	0.13820463
101	0x3dcda7be	0.1004176
102	0xbda3b04d	-0.07992611
103	0xbd082bc6	-0.03324487
104	0xbe063daf	-0.13109468
105	0x3e2bc741	0.16775228
106	0x3d788ada	0.060679294
107	0xbe89b9ae	-0.26899475
108	0xbd439b29	-0.047755394
109	0x3dfa3602	0.122173324
110	0xbd96c2f1	-0.07361401
111	0xbde1a9b7	-0.11018699
112	0xbe11a075	-0.14221366
113	0x3e0182e7	0.12647592
114	0x3df3f897	0.11912649
115	0xbda1168b	-0.07865628
116	0x3dd4d243	0.10391667
117	0xbd993fe0	-0.07482886
118	0x3de6f87d	0.11277864
119	0xbd8561d5	-0.065128006
120	0x3dc49a6b	0.095997654
121	0xbd9ceaaf	-0.0766195
122	0xbd48e394	-0.04904516
123	0x3dfb524e	0.12271558
124	0xbdef8f73	-0.11697283
125	0x3d8bb123	0.068208955
126	0xbd6335d4	-0.055471256
127	0xbe19c792	-0.15017536

batch_norm.weight f4 [128]
0	0x3e83000f	0.25585982
1	0x3f2b75f4	0.6697686
2	0x3eacbf06	0.3373949
3	0x3f4dd7b4	0.8040726
4	0x3e0fee69	0.1405579
5	0x3e39bc6c	0.18138283
6	0x3f1d0c1d	0.6134661
7	0x3ef28d35	0.47373357
8	0x3ed234d5	0.41055933
9	0x3f215ade	0.6302928
10	0x3f10e5e7	0.56600803
11	0x3f03b74b	0.5145156
12	0x3f345e9b	0.70456856
13	0x3e2ee497	0.17079388
14	0x3ecdd0bd	0.40198317
15	0x3eb8f68e	0.36125606
16	0x3f527ac7	0.82218593
17	0x3d0f7958	0.03502783
18	0x3f0a9585	0.541344
19	0x3f344e61	0.70432097
20	0x3f18d240	0.59695816
21	0x3efcb646	0.49357814
22	0x3eb91106	0.361458
23	0x3ed440dc	0.41455734
24	0x3f29e49a	0.66364443
25	0x3e97ff39	0.29686907
26	0x3ec17c19	0.37789991
27	0x3e8d2384	0.2756616
28	0x3eebf3e9	0.46084526
29	0x3ec68101	0.38770297
30	0x3f0b3d0f	0.54390043
31	0x3f48bfff	0.7841796
32	0x3e6c7689	0.23092093
33	0x3ea81c0f	0.32833907
34	0x3d072f36	0.03300401
35	0x3eabe6a8	0.33574414
36	0x3f136acf	0.5758485
37	0x3f2fdc58	0.6869559
38	0x3e4d3975	0.2004145
39	0x3f3500a3	0.70704097
40	0x3f1c8d04	0.6115267
41	0x3e70745e	0.2348189
42	0x3eb7ac4f	0.3587365
43	0x3ebe9787	0.3722498
44	0x3eaa16ec	0.33220613
45	0x3e7a05b2	0.24416235
46	0xbc8dffa3	-0.017333811
47	0x3f42933e	0.76005924
48	0x3edd11cb	0.43177637
49	0x3eb0ac53	0.34506473
50	0x3eacb359	0.3373058
51	0x3e943ee1	0.28954223
52	0x3e8434e4	0.25821602
53	0x3ebbb151	0.3665872
54	0x3e9f95e1	0.31169036
55	0x3ec14b64	0.3775283
56	0x3ed54b76	0.41659135
57	0x3d87462b	0.0660518
58	0x3e29a576	0.16567025
59	0x3e9880ed	0.29785863
60	0x3e97d14d	0.2965187
61	0x3eea2600	0.45732117
62	0x3f07df58	0.5307517
63	0x3ef7fe26	0.48436087
64	0x3e9bdd00	0.30442047
65	0x3e93324f	0.2874932
66	0x3e74202a	0.23840395
67	0x3ecd6f27	0.40123865
68	0x3ef3c1fd	0.4760894
69	0x3e43511b	0.19073908
70	0x3ef98387	0.4873316
71	0x3eabe6eb	0.33574614
72	0x3df29ad2	0.11845936
73	0x3f416665	0.75546867
74	0x3e627fca	0.2211906
75	0x3e8a3360	0.2699232
76	0x3e1d3ee7	0.15356027
77	0x3eb09e6e	0.34495872
78	0x3f14488a	0.57923186
79	0x3ec417cb	0.38299403
80	0x3ec48df5	0.38389555
81	0x3e8c91fd	0.2745513
82	0x3e1590c2	0.14606002
83	0x3f789180	0.97097015
84	0x3e74236b	0.23841636
85	0x3f6f78ee	0.935439
86	0x3f12dfac	0.57372546
87	0x3ccde710	0.025134593
88	0x3cd5cc79	0.026098477
89	0x3e62e80c	0.22158831
90	0x3eac98bb	0.33710274
91	0x3e9e8541	0.3096104
92	0x3f493734	0.7859986
93	0x3f05e5fd	0.5230406
94	0x3ed867ec	0.42266786
95	0x3f623bf5	0.8837274
96	0x3e47f0e2	0.19525483
97	0x3eb86064	0.3601104
98	0x3ed7c1fc	0.42140186
99	0x3ea6cc49	0.32577732
100	0x3e7abe54	0.24486667
101	0x3e7c1893	0.2461875
102	0x3bdb30e7	0.006689179
103	0x3f2dc8f0	0.6788473
104	0x3eef6873	0.46759376
105	0x3e2b81ac	0.16748685
106	0x3efa4cc6	0.48886698
107	0x3e8d7c6c	0.2763399
108	0x3ecb2f19	0.3968437
109	0x3e9ed436	0.3102128
110	0x3f0b1180	0.5432358
111	0x3f345edd	0.7045725
112	0x3f04b575	0.5183938
113	0x3e5cdce2	0.21568635
114	0x3ceedb8c	0.029157422
115	0x3e99cfba	0.30041295
116	0x3e8fca23	0.28083906
117	0x3f13a706	0.5767673
118	0x3eae4715	0.34038606
119	0x3ebc02e9	0.3672097
120	0x3eb3bbf3	0.3510433
121	0x3eef9ec3	0.46800813
122	0x3e9dbc9b	0.30807957
123	0x3ed2c9f7	0.41169712
124	0x3ea0dbbd	0.31417647
125	0x3dcb2e47	0.09920936
126	0x3d3c4db9	0.04597256
127	0x3f69ba83	0.9130022

batch_norm.bias f4 [128]
0	0xbe01ce2a	-0.12676302
1	0x3d679cea	0.05654613
2	0x3c1f6c51	0.0097304145
3	0x3d441b5b	0.04787765
4	0xbda7cb80	-0.081931114
5	0x3e2f5166	0.17120895
6	0x3e3290d5	0.17438062
7	0xbcae6064	-0.021286197
8	0xbd425503	-0.047444355
9	0x3d600cf8	0.054699868
10	0xbda31906	-0.07963757
11	0xbe1fc1af	-0.15601228
12	0x3e7961a4	0.24353653
13	0xbb531e5d	-0.0032214143
14	0x3df8b146	0.12143187
15	0x3db47022	0.0881045
16	0xbcabd1d3	-0.020974075
17	0xbe3d6273	-0.18494587
18	0xbd88074f	-0.06642019
19	0xbca73218	-0.020409629
20	0xbc9f39b8	-0.019436702
21	0xbdd02d61	-0.10164905
22	0x3e3e5072	0.18585375
23	0xbdc9ca2c	-0.09853014
24	0x3d8dd497	0.06925314
25	0xbde3fa79	-0.11131758
26	0xbc96f251	-0.018426092
27	0x3cc4b966	0.024014186
28	0x3d9cd16e	0.07657133
29	0xbcdc5e6c	-0.026900493
30	0x3c2a3297	0.010388038
31	0xbdd85a85	-0.1056414
32	0xbd9e9298	-0.07742804
33	0xbd94d582	-0.07267286
34	0xbe401948	-0.18759644
35	0xbdee0286	-0.11621575
36	0x3d82719a	0.06369324
37	0x3dbd8669	0.09254152
38	0x3d9b9bb9	0.07598061
39	0xbe2b7772	-0.16744784
40	0x3ba28d02	0.004960657
41	0xbdf356fb	-0.118818246
42	0x3dae359c	0.08506319
43	0xbd888072	-0.06665124
44	0xbd025485	-0.031818885
45	0x3dd0a8c3	0.10188439
46	0x3e456b5b	0.19279234
47	0x3e06eb0a	0.13175598
48	0x3d13e806	0.036109947
49	0x3d91e9f2	0.071247
50	0x3d1e2187	0.038606193
51	0x3c694d9b	0.014239694
52	0xbd841e6a	-0.064511135
53	0xbddab39a	-0.106787875
54	0xbd8ac795	-0.067763485
55	0xbe3eed65	-0.18645246
56	0xbdccc7f3	-0.09999075
57	0x3e23a0ed	0.15979357
58	0x3e1c975b	0.15292113
59	0xbd5e521a	-0.054277517
60	0xbd5c4059	-0.053772304
61	0xbd95306c	-0.07284626
62	0x3d116fbe	0.035506956
63	0x3d4d947a	0.050190426
64	0xbda16abb	-0.07881685
65	0xbcf52d6a	-0.029928882
66	0x3cd71d5e	0.02625912
67	0xbe0bfa52	-0.13669708
68	0x3d06de34	0.032926753
69	0xbe2a7906	-0.1664773
70	0x3deb55db	0.11490985
71	0xbdfcd526	-0.12345342
72	0x3db31456	0.08744113
73	0x3d4bc87f	0.049751755
74	0xbc7c2d96	-0.015391728
75	0x3d9c9566	0.07645683
76	0x3e286d3a	0.16447917
77	0xbce830f1	-0.02834365
78	0x3d9f5d10	0.07781422
79	0x3ca90593	0.02063254
80	0xbd99c647	-0.075085215
81	0x3dd68841	0.10475207
82	0x3d1c109e	0.038101785
83	0xbdb387a1	-0.087661035
84	0x3ca4f825	0.020137856
85	0xbba8b42f	-0.0051484327
86	0xbd2ef4c9	-0.042713914
87	0x3e3b0de8	0.18267024
88	0x3e504910	0.20340371
89	0x3e286117	0.16443287
90	0xbcc7dd14	-0.02439741
91	0xbcc8744f	-0.024469523
92	0xbd96e947	-0.07368713
93	0x3dc15df2	0.09441747
94	0xbd9aeba5	-0.07564477
95	0x3dccf701	0.1000805
96	0xbc03b1c6	-0.00803799
97	0xbd0c672c	-0.03427808
98	0xbe01ac06	-0.12663278
99	0xbd640a60	-0.055673957
100	0x3d49ab66	0.049235724
101	0x3cd0a2a7	0.025468184
102	0x3e2f0a60	0.17093801
103	0x3cdd58cb	0.027019879
104	0x3db7890b	0.08961686
105	0xbcb9df36	-0.022689443
106	0xbdac6897	-0.084183864
107	0xbd27ab18	-0.040934652
108	0x3c045629	0.008077183
109	0xbd99b84b	-0.07505854
110	0xbd07790f	-0.033074435
111	0xbe0c6bfa	-0.13713065
112	0x3b927a44	0.0044701416
113	0xbd877316	-0.06613748
114	0xbe5cf9a6	-0.21579608
115	0xbe0ce871	-0.13760544
116	0xbda23b88	-0.07921511
117	0x3da397fb	0.07987972
118	0xbdccddfd	-0.100032784
119	0x3c99f64b	0.0187942
120	0x3dc4afb6	0.09603827
121	0x3d597f3f	0.053099867
122	0xbdf27184	-0.11838058
123	0xbc046833	-0.008081484
124	0x3d758c41	0.05994821
125	0xbe2acc0c	-0.166794
126	0xbe44b5b8	-0.19209945
127	0xbddd7c79	-0.10814757

batch_norm.running_mean f4 [128]
0	0x3f3f9476	0.7483591
1	0x3e085a3a	0.13315669
2	0x3e00409d	0.12524648
3	0x3eb68055	0.35644785
4	0x3e88c066	0.26709288
5	0x3fd6be46	1.6776817
6	0x3f210d7f	0.6291122
7	0x3e60063c	0.21877378
8	0x3f338342	0.7012216
9	0x3faffb01	1.3748475
10	0x3f19ebc3	0.6012537
11	0x3eaf7f0b	0.34276614
12	0x3fcc4e9d	1.5961491
13	0x3ec496ff	0.3839645
14	0x3e3dec8d	0.18547268
15	0x3fad4751	1.3537389
16	0x3ece98cd	0.40350953
17	0x3e31a486	0.17347917
18	0x3e82b1ba	0.2552622
19	0x3ec423d5	0.38308588
20	0x3e0dcdaa	0.13847986
21	0x3e7f4741	0.24929525
22	0x3f620bd0	0.88299274
23	0x3f1ebf97	0.6201109
24	0x3f494d02	0.7863313
25	0x3eef84f8	0.46781135
26	0x3ef7638a	0.4831813
27	0x3f0526ae	0.52012146
28	0x3f4b8e94	0.7951443
29	0x3dd8a128	0.10577613
30	0x3ef6e773	0.48223457
31	0x3e8242c7	0.25441572
32	0x3f678250	0.90433216
33	0x3f9e7fee	1.2382791
34	0x3f8cc9f0	1.0999126
35	0x3f5ad2ff	0.85478204
36	0x3f617d90	0.8808222
37	0x3f1bf2bd	0.60917264
38	0x3f2938fb	0.6610257
39	0x3e876615	0.2644507
40	0x3f478867	0.7794251
41	0x3e34351c	0.17598385
42	0x3f30b1d5	0.6902135
43	0x3f496e45	0.7868388
44	0x3ea21cfd	0.3166274
45	0x3efc1a7a	0.4923895
46	0x3e847737	0.25872204
47	0x3f04e0f1	0.51905733
48	0x3f816f25	1.0112044
49	0x3fb03ea5	1.3769118
50	0x3f3eec72	0.74579537
51	0x3f11e61a	0.5699173
52	0x3f288821	0.65832716
53	0x3f46fe0c	0.77731395
54	0x3ebe54d0	0.37174082
55	0x3eed62ca	0.46364433
56	0x3e8384d5	0.2568728
57	0x3f8ecff0	1.1157207
58	0x3f4848e9	0.7823625
59	0x3faa5bd0	1.3309269
60	0x3fbf0121	1.492222
61	0x3f0a48e5	0.5401748
62	0x3f4c5c2e	0.79828155
63	0x3ed3eff7	0.41394016
64	0x3e9b0ca2	0.30283076
65	0x3f1b5206	0.6067203
66	0x3fcb6b74	1.5892167
67	0x3e51798e	0.20456526
68	0x3edcf835	0.43158117
69	0x3f9a0bd1	1.2034856
70	0x3ef1d0d4	0.47229636
71	0x3e943d24	0.28952897
72	0x3e8bbf7e	0.27294534
73	0x3e8390eb	0.256965
74	0x3fa28f2d	1.2699944
75	0x3e849c8d	0.2590069
76	0x3f7c88fd	0.9864653
77	0x3ed518dc	0.4162053
78	0x3e0d8116	0.13818774
79	0x3fa1ca34	1.2639832
80	0x3f8c6951	1.096964
81	0x3eb9fd4b	0.3632606
82	0x3eb5026e	0.35353416
83	0x3f12a9f6	0.5729059
84	0x3f4ed5e7	0.8079514
85	0x3e9c489f	0.30524155
86	0x3ebc419f	0.36768815
87	0x3fe10d7e	1.7582242
88	0x3ead0763	0.33794698
89	0x3eb8c88a	0.360905
90	0x3f69163e	0.91049564
91	0x3e1ffede	0.15624568
92	0x3e826cb2	0.25473553
93	0x3f1a825c	0.6035516
94	0x3fa64f2f	1.2992915
95	0x3ea64c2e	0.32479995
96	0x3e08650f	0.13319801
97	0x3efbca47	0.49177763
98	0x3f29b016	0.6628431
99	0x3f3a09c1	0.72671133
100	0x3f38d85e	0.7220515
101	0x3f1e2cf6	0.61787355
102	0x3f07622d	0.5288418
103	0x3f88568b	1.0651411
104	0x3fa4aa5e	1.2864492
105	0x3ee5e46e	0.4490084
106	0x3f324c2b	0.69647473
107	0x3e93fdde	0.28904623
108	0x3ec1c3dc	0.3784474
109	0x3f4e970b	0.80699223
110	0x3f0ec328	0.55766535
111	0x3e1993ea	0.14997831
112	0x3f2e17fc	0.6800535
113	0x3f17da13	0.5931713
114	0x3eb1b1d8	0.34705997
115	0x3e32c970	0.17459655
116	0x3e89384a	0.26800758
117	0x3f444cb0	0.76679516
118	0x3ead8d32	0.33896786
119	0x3f258712	0.64659226
120	0x3e9f60b8	0.31128478
121	0x3fb57b38	1.4178228
122	0x3ee83a21	0.4535685
123	0x3f5eba37	0.8700289
124	0x3ee2da53	0.44307193
125	0x3fc7df72	1.5615065
126	0x3f00a844	0.5025675
127	0x3e530043	0.20605569

batch_norm.running_var f4 [128]
0	0x3f7cdcbc	0.98774314
1	0x3d6a12b3	0.05714674
2	0x3db65891	0.089036115
3	0x3e701fa2	0.23449567
4	0x3ea80795	0.32818285
5	0x3f992817	1.196536
6	0x3ed64255	0.41847482
7	0x3df54614	0.11976257
8	0x3f4f5ff1	0.8100577
9	0x401378d6	2.3042502
10	0x3f394d61	0.72383696
11	0x3e61ac41	0.22038366
12	0x4013fc10	2.3122597
13	0x3ee16ae9	0.44026878
14	0x3e21d52e	0.15803978
15	0x40317c93	2.7732284
16	0x3ea2006c	0.31640947
17	0x3de7efcf	0.11325037
18	0x3e474ce1	0.1946292
19	0x3e862468	0.2619965
20	0x3d87b319	0.06625957
21	0x3e2ee2f2	0.1707876
22	0x3f1f936a	0.6233431
23	0x3f1ef486	0.62091863
24	0x3f0817ad	0.53161126
25	0x3f16a8c9	0.58851296
26	0x3f1e6134	0.6186707
27	0x3e8f9be3	0.2804862
28	0x3f1f671f	0.62266725
29	0x3d935782	0.07194425
30	0x3f050cbd	0.5197256
31	0x3e17d172	0.14825991
32	0x3f831652	1.0241187
33	0x3f0bd89d	0.546274
34	0x3f84fdbf	1.0389937
35	0x3f102653	0.5630848
36	0x3f378455	0.716863
37	0x3eed312f	0.46326587
38	0x3f13e50c	0.5777137
39	0x3e3adbcc	0.18247908
40	0x3f0e1b1a	0.55510104
41	0x3e0f05e8	0.13967097
42	0x3f0d7c97	0.55268234
43	0x3f5d41d0	0.86428547
44	0x3e28b9b8	0.16477096
45	0x3ea2a4b5	0.31766286
46	0x3e3979b4	0.18112832
47	0x3ecb2324	0.39675248
48	0x3f371081	0.7150956
49	0x3f87804e	1.058603
50	0x3e5162ef	0.20447896
51	0x3ed17cf2	0.40915638
52	0x3eec7d08	0.4618914
53	0x3eb18778	0.34673667
54	0x3ea79a02	0.32734686
55	0x3f0a4b86	0.5402149
56	0x3e8fa658	0.28056598
57	0x3fb47cff	1.4100646
58	0x3f57d569	0.84310013
59	0x3ffa2244	1.9541707
60	0x3ffbbd89	1.9667217
61	0x3e8a58e1	0.27020934
62	0x3f876246	1.0576866
63	0x3e9ca9ba	0.3059824
64	0x3e568725	0.20949991
65	0x3f520395	0.82036716
66	0x3f3a22d5	0.727094
67	0x3e11aeba	0.14226809
68	0x3e33b6fb	0.1755027
69	0x3fe8b39e	1.8179815
70	0x3ef3ddb7	0.47630093
71	0x3e4d92d5	0.20075543
72	0x3e538ee5	0.20659979
73	0x3e118bc5	0.14213474
74	0x3edcaad0	0.4309907
75	0x3e54f7cd	0.20797653
76	0x3f2afa67	0.66788334
77	0x3eb20285	0.34767547
78	0x3dcce5e0	0.10004783
79	0x3f69f472	0.9138862
80	0x3f9be00e	1.2177751
81	0x3e85a392	0.26101357
82	0x3e8fd8d2	0.28095108
83	0x3ed4e672	0.41582066
84	0x3f7000c1	0.9375115
85	0x3e50185f	0.20321797
86	0x3dea8194	0.11450496
87	0x405f2c82	3.4870915
88	0x3e8e535f	0.27797982
89	0x3f146d65	0.5797942
90	0x3f8e8ce9	1.1136752
91	0x3d908056	0.07055728
92	0x3e2e87e7	0.1704403
93	0x3f0accc1	0.5421868
94	0x40042c47	2.0652025
95	0x3e349a1e	0.17636916
96	0x3de43005	0.111419715
97	0x3f18b5c3	0.59652346
98	0x3ed27d34	0.41111147
99	0x3f029d16	0.51020944
100	0x3ec96bec	0.3934015
101	0x3f1e4b12	0.618333
102	0x3ef3a42a	0.47586185
103	0x3f958b38	1.1683111
104	0x3f432d6b	0.7624118
105	0x3ed387d1	0.41314557
106	0x3ef3241a	0.4748848
107	0x3e3ed054	0.18634158
108	0x3ea8c94a	0.3296607
109	0x3f796a50	0.97427845
110	0x3eb4cf37	0.35314342
111	0x3d9d3e65	0.076779164
112	0x3f1b19d8	0.6058631
113	0x3ee651b0	0.44984198
114	0x3ec45918	0.38349223
115	0x3dcb7062	0.09933545
116	0x3e5bdc91	0.21470858
117	0x3ea7a3eb	0.32742247
118	0x3e720a4d	0.23636742
119	0x3e848fb6	0.25890893
120	0x3e96ac73	0.29428443
121	0x40147a72	2.3199735
122	0x3e85d5c2	0.26139647
123	0x3ef1643d	0.47146788
124	0x3e95016b	0.29102644
125	0x3f7ad2ab	0.97977704
126	0x3f283dde	0.657194
127	0x3e13a75c	0.14419311
